<?xml version="1.0" ?>
<net name="yolo_v4_tiny" version="10">
	<layers>
		<layer id="0" name="inputs" type="Parameter" version="opset1">
			<data element_type="f16" shape="1,3,320,512"/>
			<output>
				<port id="0" names="detector/truediv:0" precision="FP16">
					<dim>1</dim>
					<dim>3</dim>
					<dim>320</dim>
					<dim>512</dim>
				</port>
			</output>
		</layer>
		<layer id="1" name="inputs/reverse_input_channels/Concat7415_const" type="Const" version="opset1">
			<data element_type="f16" offset="0" shape="32,3,3,3" size="1728"/>
			<output>
				<port id="0" names="detector/yolo-v4-tiny/Conv/weights/read:0" precision="FP16">
					<dim>32</dim>
					<dim>3</dim>
					<dim>3</dim>
					<dim>3</dim>
				</port>
			</output>
		</layer>
		<layer id="2" name="detector/yolo-v4-tiny/Conv/Conv2D" type="Convolution" version="opset1">
			<data auto_pad="explicit" dilations="1,1" pads_begin="1,1" pads_end="1,1" strides="2,2"/>
			<input>
				<port id="0">
					<dim>1</dim>
					<dim>3</dim>
					<dim>320</dim>
					<dim>512</dim>
				</port>
				<port id="1">
					<dim>32</dim>
					<dim>3</dim>
					<dim>3</dim>
					<dim>3</dim>
				</port>
			</input>
			<output>
				<port id="2" precision="FP16">
					<dim>1</dim>
					<dim>32</dim>
					<dim>160</dim>
					<dim>256</dim>
				</port>
			</output>
		</layer>
		<layer id="3" name="data_add_42864472/EltwiseUnsqueeze4528_const" type="Const" version="opset1">
			<data element_type="f16" offset="1728" shape="1,32,1,1" size="64"/>
			<output>
				<port id="0" precision="FP16">
					<dim>1</dim>
					<dim>32</dim>
					<dim>1</dim>
					<dim>1</dim>
				</port>
			</output>
		</layer>
		<layer id="4" name="detector/yolo-v4-tiny/Conv/BatchNorm/FusedBatchNormV3/variance/Fused_Add_" type="Add" version="opset1">
			<data auto_broadcast="numpy"/>
			<input>
				<port id="0">
					<dim>1</dim>
					<dim>32</dim>
					<dim>160</dim>
					<dim>256</dim>
				</port>
				<port id="1">
					<dim>1</dim>
					<dim>32</dim>
					<dim>1</dim>
					<dim>1</dim>
				</port>
			</input>
			<output>
				<port id="2" names="detector/yolo-v4-tiny/Conv/BatchNorm/FusedBatchNormV3:0" precision="FP16">
					<dim>1</dim>
					<dim>32</dim>
					<dim>160</dim>
					<dim>256</dim>
				</port>
			</output>
		</layer>
		<layer id="5" name="detector/yolo-v4-tiny/Conv/LeakyRelu/Cast_17907_const" type="Const" version="opset1">
			<data element_type="f32" offset="1792" shape="1" size="4"/>
			<output>
				<port id="0" precision="FP32">
					<dim>1</dim>
				</port>
			</output>
		</layer>
		<layer id="6" name="detector/yolo-v4-tiny/Conv/LeakyRelu" type="PReLU" version="opset1">
			<input>
				<port id="0">
					<dim>1</dim>
					<dim>32</dim>
					<dim>160</dim>
					<dim>256</dim>
				</port>
				<port id="1">
					<dim>1</dim>
				</port>
			</input>
			<output>
				<port id="2" names="detector/yolo-v4-tiny/Conv/LeakyRelu:0" precision="FP16">
					<dim>1</dim>
					<dim>32</dim>
					<dim>160</dim>
					<dim>256</dim>
				</port>
			</output>
		</layer>
		<layer id="7" name="detector/yolo-v4-tiny/Conv_1/Conv2D/Transpose5529_const" type="Const" version="opset1">
			<data element_type="f16" offset="1796" shape="64,32,3,3" size="36864"/>
			<output>
				<port id="0" names="detector/yolo-v4-tiny/Conv_1/weights/read:0" precision="FP16">
					<dim>64</dim>
					<dim>32</dim>
					<dim>3</dim>
					<dim>3</dim>
				</port>
			</output>
		</layer>
		<layer id="8" name="detector/yolo-v4-tiny/Conv_1/Conv2D" type="Convolution" version="opset1">
			<data auto_pad="explicit" dilations="1,1" pads_begin="1,1" pads_end="1,1" strides="2,2"/>
			<input>
				<port id="0">
					<dim>1</dim>
					<dim>32</dim>
					<dim>160</dim>
					<dim>256</dim>
				</port>
				<port id="1">
					<dim>64</dim>
					<dim>32</dim>
					<dim>3</dim>
					<dim>3</dim>
				</port>
			</input>
			<output>
				<port id="2" precision="FP16">
					<dim>1</dim>
					<dim>64</dim>
					<dim>80</dim>
					<dim>128</dim>
				</port>
			</output>
		</layer>
		<layer id="9" name="data_add_428942944474/EltwiseUnsqueeze4536_const" type="Const" version="opset1">
			<data element_type="f16" offset="38660" shape="1,64,1,1" size="128"/>
			<output>
				<port id="0" precision="FP16">
					<dim>1</dim>
					<dim>64</dim>
					<dim>1</dim>
					<dim>1</dim>
				</port>
			</output>
		</layer>
		<layer id="10" name="detector/yolo-v4-tiny/Conv_1/BatchNorm/FusedBatchNormV3/variance/Fused_Add_" type="Add" version="opset1">
			<data auto_broadcast="numpy"/>
			<input>
				<port id="0">
					<dim>1</dim>
					<dim>64</dim>
					<dim>80</dim>
					<dim>128</dim>
				</port>
				<port id="1">
					<dim>1</dim>
					<dim>64</dim>
					<dim>1</dim>
					<dim>1</dim>
				</port>
			</input>
			<output>
				<port id="2" names="detector/yolo-v4-tiny/Conv_1/BatchNorm/FusedBatchNormV3:0" precision="FP16">
					<dim>1</dim>
					<dim>64</dim>
					<dim>80</dim>
					<dim>128</dim>
				</port>
			</output>
		</layer>
		<layer id="11" name="detector/yolo-v4-tiny/Conv_1/LeakyRelu/Cast_17935_const" type="Const" version="opset1">
			<data element_type="f32" offset="1792" shape="1" size="4"/>
			<output>
				<port id="0" precision="FP32">
					<dim>1</dim>
				</port>
			</output>
		</layer>
		<layer id="12" name="detector/yolo-v4-tiny/Conv_1/LeakyRelu" type="PReLU" version="opset1">
			<input>
				<port id="0">
					<dim>1</dim>
					<dim>64</dim>
					<dim>80</dim>
					<dim>128</dim>
				</port>
				<port id="1">
					<dim>1</dim>
				</port>
			</input>
			<output>
				<port id="2" names="detector/yolo-v4-tiny/Conv_1/LeakyRelu:0" precision="FP16">
					<dim>1</dim>
					<dim>64</dim>
					<dim>80</dim>
					<dim>128</dim>
				</port>
			</output>
		</layer>
		<layer id="13" name="detector/yolo-v4-tiny/Conv_2/Conv2D/Transpose5533_const" type="Const" version="opset1">
			<data element_type="f16" offset="38788" shape="64,64,3,3" size="73728"/>
			<output>
				<port id="0" names="detector/yolo-v4-tiny/Conv_2/weights/read:0" precision="FP16">
					<dim>64</dim>
					<dim>64</dim>
					<dim>3</dim>
					<dim>3</dim>
				</port>
			</output>
		</layer>
		<layer id="14" name="detector/yolo-v4-tiny/Conv_2/Conv2D" type="Convolution" version="opset1">
			<data auto_pad="same_upper" dilations="1,1" pads_begin="0,0" pads_end="0,0" strides="1,1"/>
			<input>
				<port id="0">
					<dim>1</dim>
					<dim>64</dim>
					<dim>80</dim>
					<dim>128</dim>
				</port>
				<port id="1">
					<dim>64</dim>
					<dim>64</dim>
					<dim>3</dim>
					<dim>3</dim>
				</port>
			</input>
			<output>
				<port id="2" precision="FP16">
					<dim>1</dim>
					<dim>64</dim>
					<dim>80</dim>
					<dim>128</dim>
				</port>
			</output>
		</layer>
		<layer id="15" name="data_add_429743024476/EltwiseUnsqueeze4544_const" type="Const" version="opset1">
			<data element_type="f16" offset="112516" shape="1,64,1,1" size="128"/>
			<output>
				<port id="0" precision="FP16">
					<dim>1</dim>
					<dim>64</dim>
					<dim>1</dim>
					<dim>1</dim>
				</port>
			</output>
		</layer>
		<layer id="16" name="detector/yolo-v4-tiny/Conv_2/BatchNorm/FusedBatchNormV3/variance/Fused_Add_" type="Add" version="opset1">
			<data auto_broadcast="numpy"/>
			<input>
				<port id="0">
					<dim>1</dim>
					<dim>64</dim>
					<dim>80</dim>
					<dim>128</dim>
				</port>
				<port id="1">
					<dim>1</dim>
					<dim>64</dim>
					<dim>1</dim>
					<dim>1</dim>
				</port>
			</input>
			<output>
				<port id="2" names="detector/yolo-v4-tiny/Conv_2/BatchNorm/FusedBatchNormV3:0" precision="FP16">
					<dim>1</dim>
					<dim>64</dim>
					<dim>80</dim>
					<dim>128</dim>
				</port>
			</output>
		</layer>
		<layer id="17" name="detector/yolo-v4-tiny/Conv_2/LeakyRelu/Cast_17927_const" type="Const" version="opset1">
			<data element_type="f32" offset="1792" shape="1" size="4"/>
			<output>
				<port id="0" precision="FP32">
					<dim>1</dim>
				</port>
			</output>
		</layer>
		<layer id="18" name="detector/yolo-v4-tiny/Conv_2/LeakyRelu" type="PReLU" version="opset1">
			<input>
				<port id="0">
					<dim>1</dim>
					<dim>64</dim>
					<dim>80</dim>
					<dim>128</dim>
				</port>
				<port id="1">
					<dim>1</dim>
				</port>
			</input>
			<output>
				<port id="2" names="detector/yolo-v4-tiny/Conv_2/LeakyRelu:0" precision="FP16">
					<dim>1</dim>
					<dim>64</dim>
					<dim>80</dim>
					<dim>128</dim>
				</port>
			</output>
		</layer>
		<layer id="19" name="detector/yolo-v4-tiny/strided_slice/Cast_17939_const" type="Const" version="opset1">
			<data element_type="i64" offset="112644" shape="4" size="32"/>
			<output>
				<port id="0" precision="I64">
					<dim>4</dim>
				</port>
			</output>
		</layer>
		<layer id="20" name="detector/yolo-v4-tiny/strided_slice/Cast_27941_const" type="Const" version="opset1">
			<data element_type="i64" offset="112676" shape="4" size="32"/>
			<output>
				<port id="0" precision="I64">
					<dim>4</dim>
				</port>
			</output>
		</layer>
		<layer id="21" name="detector/yolo-v4-tiny/strided_slice/Cast_37943_const" type="Const" version="opset1">
			<data element_type="i64" offset="112708" shape="4" size="32"/>
			<output>
				<port id="0" precision="I64">
					<dim>4</dim>
				</port>
			</output>
		</layer>
		<layer id="22" name="detector/yolo-v4-tiny/strided_slice" type="StridedSlice" version="opset1">
			<data begin_mask="1,0,1,1" ellipsis_mask="0,0,0,0" end_mask="1,1,1,1" new_axis_mask="0,0,0,0" shrink_axis_mask="0,0,0,0"/>
			<input>
				<port id="0">
					<dim>1</dim>
					<dim>64</dim>
					<dim>80</dim>
					<dim>128</dim>
				</port>
				<port id="1">
					<dim>4</dim>
				</port>
				<port id="2">
					<dim>4</dim>
				</port>
				<port id="3">
					<dim>4</dim>
				</port>
			</input>
			<output>
				<port id="4" names="detector/yolo-v4-tiny/strided_slice:0" precision="FP16">
					<dim>1</dim>
					<dim>32</dim>
					<dim>80</dim>
					<dim>128</dim>
				</port>
			</output>
		</layer>
		<layer id="23" name="detector/yolo-v4-tiny/Conv_3/Conv2D/Transpose5555_const" type="Const" version="opset1">
			<data element_type="f16" offset="112740" shape="32,32,3,3" size="18432"/>
			<output>
				<port id="0" names="detector/yolo-v4-tiny/Conv_3/weights/read:0" precision="FP16">
					<dim>32</dim>
					<dim>32</dim>
					<dim>3</dim>
					<dim>3</dim>
				</port>
			</output>
		</layer>
		<layer id="24" name="detector/yolo-v4-tiny/Conv_3/Conv2D" type="Convolution" version="opset1">
			<data auto_pad="same_upper" dilations="1,1" pads_begin="0,0" pads_end="0,0" strides="1,1"/>
			<input>
				<port id="0">
					<dim>1</dim>
					<dim>32</dim>
					<dim>80</dim>
					<dim>128</dim>
				</port>
				<port id="1">
					<dim>32</dim>
					<dim>32</dim>
					<dim>3</dim>
					<dim>3</dim>
				</port>
			</input>
			<output>
				<port id="2" precision="FP16">
					<dim>1</dim>
					<dim>32</dim>
					<dim>80</dim>
					<dim>128</dim>
				</port>
			</output>
		</layer>
		<layer id="25" name="data_add_430543104478/EltwiseUnsqueeze4552_const" type="Const" version="opset1">
			<data element_type="f16" offset="131172" shape="1,32,1,1" size="64"/>
			<output>
				<port id="0" precision="FP16">
					<dim>1</dim>
					<dim>32</dim>
					<dim>1</dim>
					<dim>1</dim>
				</port>
			</output>
		</layer>
		<layer id="26" name="detector/yolo-v4-tiny/Conv_3/BatchNorm/FusedBatchNormV3/variance/Fused_Add_" type="Add" version="opset1">
			<data auto_broadcast="numpy"/>
			<input>
				<port id="0">
					<dim>1</dim>
					<dim>32</dim>
					<dim>80</dim>
					<dim>128</dim>
				</port>
				<port id="1">
					<dim>1</dim>
					<dim>32</dim>
					<dim>1</dim>
					<dim>1</dim>
				</port>
			</input>
			<output>
				<port id="2" names="detector/yolo-v4-tiny/Conv_3/BatchNorm/FusedBatchNormV3:0" precision="FP16">
					<dim>1</dim>
					<dim>32</dim>
					<dim>80</dim>
					<dim>128</dim>
				</port>
			</output>
		</layer>
		<layer id="27" name="detector/yolo-v4-tiny/Conv_3/LeakyRelu/Cast_17891_const" type="Const" version="opset1">
			<data element_type="f32" offset="1792" shape="1" size="4"/>
			<output>
				<port id="0" precision="FP32">
					<dim>1</dim>
				</port>
			</output>
		</layer>
		<layer id="28" name="detector/yolo-v4-tiny/Conv_3/LeakyRelu" type="PReLU" version="opset1">
			<input>
				<port id="0">
					<dim>1</dim>
					<dim>32</dim>
					<dim>80</dim>
					<dim>128</dim>
				</port>
				<port id="1">
					<dim>1</dim>
				</port>
			</input>
			<output>
				<port id="2" names="detector/yolo-v4-tiny/Conv_3/LeakyRelu:0" precision="FP16">
					<dim>1</dim>
					<dim>32</dim>
					<dim>80</dim>
					<dim>128</dim>
				</port>
			</output>
		</layer>
		<layer id="29" name="detector/yolo-v4-tiny/Conv_4/Conv2D/Transpose5559_const" type="Const" version="opset1">
			<data element_type="f16" offset="131236" shape="32,32,3,3" size="18432"/>
			<output>
				<port id="0" names="detector/yolo-v4-tiny/Conv_4/weights/read:0" precision="FP16">
					<dim>32</dim>
					<dim>32</dim>
					<dim>3</dim>
					<dim>3</dim>
				</port>
			</output>
		</layer>
		<layer id="30" name="detector/yolo-v4-tiny/Conv_4/Conv2D" type="Convolution" version="opset1">
			<data auto_pad="same_upper" dilations="1,1" pads_begin="0,0" pads_end="0,0" strides="1,1"/>
			<input>
				<port id="0">
					<dim>1</dim>
					<dim>32</dim>
					<dim>80</dim>
					<dim>128</dim>
				</port>
				<port id="1">
					<dim>32</dim>
					<dim>32</dim>
					<dim>3</dim>
					<dim>3</dim>
				</port>
			</input>
			<output>
				<port id="2" precision="FP16">
					<dim>1</dim>
					<dim>32</dim>
					<dim>80</dim>
					<dim>128</dim>
				</port>
			</output>
		</layer>
		<layer id="31" name="data_add_431343184480/EltwiseUnsqueeze4560_const" type="Const" version="opset1">
			<data element_type="f16" offset="149668" shape="1,32,1,1" size="64"/>
			<output>
				<port id="0" precision="FP16">
					<dim>1</dim>
					<dim>32</dim>
					<dim>1</dim>
					<dim>1</dim>
				</port>
			</output>
		</layer>
		<layer id="32" name="detector/yolo-v4-tiny/Conv_4/BatchNorm/FusedBatchNormV3/variance/Fused_Add_" type="Add" version="opset1">
			<data auto_broadcast="numpy"/>
			<input>
				<port id="0">
					<dim>1</dim>
					<dim>32</dim>
					<dim>80</dim>
					<dim>128</dim>
				</port>
				<port id="1">
					<dim>1</dim>
					<dim>32</dim>
					<dim>1</dim>
					<dim>1</dim>
				</port>
			</input>
			<output>
				<port id="2" names="detector/yolo-v4-tiny/Conv_4/BatchNorm/FusedBatchNormV3:0" precision="FP16">
					<dim>1</dim>
					<dim>32</dim>
					<dim>80</dim>
					<dim>128</dim>
				</port>
			</output>
		</layer>
		<layer id="33" name="detector/yolo-v4-tiny/Conv_4/LeakyRelu/Cast_17901_const" type="Const" version="opset1">
			<data element_type="f32" offset="1792" shape="1" size="4"/>
			<output>
				<port id="0" precision="FP32">
					<dim>1</dim>
				</port>
			</output>
		</layer>
		<layer id="34" name="detector/yolo-v4-tiny/Conv_4/LeakyRelu" type="PReLU" version="opset1">
			<input>
				<port id="0">
					<dim>1</dim>
					<dim>32</dim>
					<dim>80</dim>
					<dim>128</dim>
				</port>
				<port id="1">
					<dim>1</dim>
				</port>
			</input>
			<output>
				<port id="2" names="detector/yolo-v4-tiny/Conv_4/LeakyRelu:0" precision="FP16">
					<dim>1</dim>
					<dim>32</dim>
					<dim>80</dim>
					<dim>128</dim>
				</port>
			</output>
		</layer>
		<layer id="35" name="detector/yolo-v4-tiny/concat" type="Concat" version="opset1">
			<data axis="1"/>
			<input>
				<port id="0">
					<dim>1</dim>
					<dim>32</dim>
					<dim>80</dim>
					<dim>128</dim>
				</port>
				<port id="1">
					<dim>1</dim>
					<dim>32</dim>
					<dim>80</dim>
					<dim>128</dim>
				</port>
			</input>
			<output>
				<port id="2" names="detector/yolo-v4-tiny/concat:0" precision="FP16">
					<dim>1</dim>
					<dim>64</dim>
					<dim>80</dim>
					<dim>128</dim>
				</port>
			</output>
		</layer>
		<layer id="36" name="detector/yolo-v4-tiny/Conv_5/Conv2D/Transpose5563_const" type="Const" version="opset1">
			<data element_type="f16" offset="149732" shape="64,64,1,1" size="8192"/>
			<output>
				<port id="0" names="detector/yolo-v4-tiny/Conv_5/weights/read:0" precision="FP16">
					<dim>64</dim>
					<dim>64</dim>
					<dim>1</dim>
					<dim>1</dim>
				</port>
			</output>
		</layer>
		<layer id="37" name="detector/yolo-v4-tiny/Conv_5/Conv2D" type="Convolution" version="opset1">
			<data auto_pad="same_upper" dilations="1,1" pads_begin="0,0" pads_end="0,0" strides="1,1"/>
			<input>
				<port id="0">
					<dim>1</dim>
					<dim>64</dim>
					<dim>80</dim>
					<dim>128</dim>
				</port>
				<port id="1">
					<dim>64</dim>
					<dim>64</dim>
					<dim>1</dim>
					<dim>1</dim>
				</port>
			</input>
			<output>
				<port id="2" precision="FP16">
					<dim>1</dim>
					<dim>64</dim>
					<dim>80</dim>
					<dim>128</dim>
				</port>
			</output>
		</layer>
		<layer id="38" name="data_add_432143264482/EltwiseUnsqueeze4568_const" type="Const" version="opset1">
			<data element_type="f16" offset="157924" shape="1,64,1,1" size="128"/>
			<output>
				<port id="0" precision="FP16">
					<dim>1</dim>
					<dim>64</dim>
					<dim>1</dim>
					<dim>1</dim>
				</port>
			</output>
		</layer>
		<layer id="39" name="detector/yolo-v4-tiny/Conv_5/BatchNorm/FusedBatchNormV3/variance/Fused_Add_" type="Add" version="opset1">
			<data auto_broadcast="numpy"/>
			<input>
				<port id="0">
					<dim>1</dim>
					<dim>64</dim>
					<dim>80</dim>
					<dim>128</dim>
				</port>
				<port id="1">
					<dim>1</dim>
					<dim>64</dim>
					<dim>1</dim>
					<dim>1</dim>
				</port>
			</input>
			<output>
				<port id="2" names="detector/yolo-v4-tiny/Conv_5/BatchNorm/FusedBatchNormV3:0" precision="FP16">
					<dim>1</dim>
					<dim>64</dim>
					<dim>80</dim>
					<dim>128</dim>
				</port>
			</output>
		</layer>
		<layer id="40" name="detector/yolo-v4-tiny/Conv_5/LeakyRelu/Cast_17947_const" type="Const" version="opset1">
			<data element_type="f32" offset="1792" shape="1" size="4"/>
			<output>
				<port id="0" precision="FP32">
					<dim>1</dim>
				</port>
			</output>
		</layer>
		<layer id="41" name="detector/yolo-v4-tiny/Conv_5/LeakyRelu" type="PReLU" version="opset1">
			<input>
				<port id="0">
					<dim>1</dim>
					<dim>64</dim>
					<dim>80</dim>
					<dim>128</dim>
				</port>
				<port id="1">
					<dim>1</dim>
				</port>
			</input>
			<output>
				<port id="2" names="detector/yolo-v4-tiny/Conv_5/LeakyRelu:0" precision="FP16">
					<dim>1</dim>
					<dim>64</dim>
					<dim>80</dim>
					<dim>128</dim>
				</port>
			</output>
		</layer>
		<layer id="42" name="detector/yolo-v4-tiny/concat_1" type="Concat" version="opset1">
			<data axis="1"/>
			<input>
				<port id="0">
					<dim>1</dim>
					<dim>64</dim>
					<dim>80</dim>
					<dim>128</dim>
				</port>
				<port id="1">
					<dim>1</dim>
					<dim>64</dim>
					<dim>80</dim>
					<dim>128</dim>
				</port>
			</input>
			<output>
				<port id="2" names="detector/yolo-v4-tiny/concat_1:0" precision="FP16">
					<dim>1</dim>
					<dim>128</dim>
					<dim>80</dim>
					<dim>128</dim>
				</port>
			</output>
		</layer>
		<layer id="43" name="detector/yolo-v4-tiny/pool2/MaxPool" type="MaxPool" version="opset1">
			<data auto_pad="valid" kernel="2,2" pads_begin="0,0" pads_end="0,0" strides="2,2"/>
			<input>
				<port id="0">
					<dim>1</dim>
					<dim>128</dim>
					<dim>80</dim>
					<dim>128</dim>
				</port>
			</input>
			<output>
				<port id="1" names="detector/yolo-v4-tiny/pool2/MaxPool:0" precision="FP16">
					<dim>1</dim>
					<dim>128</dim>
					<dim>40</dim>
					<dim>64</dim>
				</port>
			</output>
		</layer>
		<layer id="44" name="detector/yolo-v4-tiny/Conv_6/Conv2D/Transpose5567_const" type="Const" version="opset1">
			<data element_type="f16" offset="158052" shape="128,128,3,3" size="294912"/>
			<output>
				<port id="0" names="detector/yolo-v4-tiny/Conv_6/weights/read:0" precision="FP16">
					<dim>128</dim>
					<dim>128</dim>
					<dim>3</dim>
					<dim>3</dim>
				</port>
			</output>
		</layer>
		<layer id="45" name="detector/yolo-v4-tiny/Conv_6/Conv2D" type="Convolution" version="opset1">
			<data auto_pad="same_upper" dilations="1,1" pads_begin="0,0" pads_end="0,0" strides="1,1"/>
			<input>
				<port id="0">
					<dim>1</dim>
					<dim>128</dim>
					<dim>40</dim>
					<dim>64</dim>
				</port>
				<port id="1">
					<dim>128</dim>
					<dim>128</dim>
					<dim>3</dim>
					<dim>3</dim>
				</port>
			</input>
			<output>
				<port id="2" precision="FP16">
					<dim>1</dim>
					<dim>128</dim>
					<dim>40</dim>
					<dim>64</dim>
				</port>
			</output>
		</layer>
		<layer id="46" name="data_add_432943344484/EltwiseUnsqueeze4576_const" type="Const" version="opset1">
			<data element_type="f16" offset="452964" shape="1,128,1,1" size="256"/>
			<output>
				<port id="0" precision="FP16">
					<dim>1</dim>
					<dim>128</dim>
					<dim>1</dim>
					<dim>1</dim>
				</port>
			</output>
		</layer>
		<layer id="47" name="detector/yolo-v4-tiny/Conv_6/BatchNorm/FusedBatchNormV3/variance/Fused_Add_" type="Add" version="opset1">
			<data auto_broadcast="numpy"/>
			<input>
				<port id="0">
					<dim>1</dim>
					<dim>128</dim>
					<dim>40</dim>
					<dim>64</dim>
				</port>
				<port id="1">
					<dim>1</dim>
					<dim>128</dim>
					<dim>1</dim>
					<dim>1</dim>
				</port>
			</input>
			<output>
				<port id="2" names="detector/yolo-v4-tiny/Conv_6/BatchNorm/FusedBatchNormV3:0" precision="FP16">
					<dim>1</dim>
					<dim>128</dim>
					<dim>40</dim>
					<dim>64</dim>
				</port>
			</output>
		</layer>
		<layer id="48" name="detector/yolo-v4-tiny/Conv_6/LeakyRelu/Cast_17925_const" type="Const" version="opset1">
			<data element_type="f32" offset="1792" shape="1" size="4"/>
			<output>
				<port id="0" precision="FP32">
					<dim>1</dim>
				</port>
			</output>
		</layer>
		<layer id="49" name="detector/yolo-v4-tiny/Conv_6/LeakyRelu" type="PReLU" version="opset1">
			<input>
				<port id="0">
					<dim>1</dim>
					<dim>128</dim>
					<dim>40</dim>
					<dim>64</dim>
				</port>
				<port id="1">
					<dim>1</dim>
				</port>
			</input>
			<output>
				<port id="2" names="detector/yolo-v4-tiny/Conv_6/LeakyRelu:0" precision="FP16">
					<dim>1</dim>
					<dim>128</dim>
					<dim>40</dim>
					<dim>64</dim>
				</port>
			</output>
		</layer>
		<layer id="50" name="detector/yolo-v4-tiny/strided_slice_1/Cast_17909_const" type="Const" version="opset1">
			<data element_type="i64" offset="453220" shape="4" size="32"/>
			<output>
				<port id="0" precision="I64">
					<dim>4</dim>
				</port>
			</output>
		</layer>
		<layer id="51" name="detector/yolo-v4-tiny/strided_slice_1/Cast_27911_const" type="Const" version="opset1">
			<data element_type="i64" offset="112676" shape="4" size="32"/>
			<output>
				<port id="0" precision="I64">
					<dim>4</dim>
				</port>
			</output>
		</layer>
		<layer id="52" name="detector/yolo-v4-tiny/strided_slice_1/Cast_37913_const" type="Const" version="opset1">
			<data element_type="i64" offset="112708" shape="4" size="32"/>
			<output>
				<port id="0" precision="I64">
					<dim>4</dim>
				</port>
			</output>
		</layer>
		<layer id="53" name="detector/yolo-v4-tiny/strided_slice_1" type="StridedSlice" version="opset1">
			<data begin_mask="1,0,1,1" ellipsis_mask="0,0,0,0" end_mask="1,1,1,1" new_axis_mask="0,0,0,0" shrink_axis_mask="0,0,0,0"/>
			<input>
				<port id="0">
					<dim>1</dim>
					<dim>128</dim>
					<dim>40</dim>
					<dim>64</dim>
				</port>
				<port id="1">
					<dim>4</dim>
				</port>
				<port id="2">
					<dim>4</dim>
				</port>
				<port id="3">
					<dim>4</dim>
				</port>
			</input>
			<output>
				<port id="4" names="detector/yolo-v4-tiny/strided_slice_1:0" precision="FP16">
					<dim>1</dim>
					<dim>64</dim>
					<dim>40</dim>
					<dim>64</dim>
				</port>
			</output>
		</layer>
		<layer id="54" name="detector/yolo-v4-tiny/Conv_7/Conv2D/Transpose5589_const" type="Const" version="opset1">
			<data element_type="f16" offset="453252" shape="64,64,3,3" size="73728"/>
			<output>
				<port id="0" names="detector/yolo-v4-tiny/Conv_7/weights/read:0" precision="FP16">
					<dim>64</dim>
					<dim>64</dim>
					<dim>3</dim>
					<dim>3</dim>
				</port>
			</output>
		</layer>
		<layer id="55" name="detector/yolo-v4-tiny/Conv_7/Conv2D" type="Convolution" version="opset1">
			<data auto_pad="same_upper" dilations="1,1" pads_begin="0,0" pads_end="0,0" strides="1,1"/>
			<input>
				<port id="0">
					<dim>1</dim>
					<dim>64</dim>
					<dim>40</dim>
					<dim>64</dim>
				</port>
				<port id="1">
					<dim>64</dim>
					<dim>64</dim>
					<dim>3</dim>
					<dim>3</dim>
				</port>
			</input>
			<output>
				<port id="2" precision="FP16">
					<dim>1</dim>
					<dim>64</dim>
					<dim>40</dim>
					<dim>64</dim>
				</port>
			</output>
		</layer>
		<layer id="56" name="data_add_433743424486/EltwiseUnsqueeze4584_const" type="Const" version="opset1">
			<data element_type="f16" offset="526980" shape="1,64,1,1" size="128"/>
			<output>
				<port id="0" precision="FP16">
					<dim>1</dim>
					<dim>64</dim>
					<dim>1</dim>
					<dim>1</dim>
				</port>
			</output>
		</layer>
		<layer id="57" name="detector/yolo-v4-tiny/Conv_7/BatchNorm/FusedBatchNormV3/variance/Fused_Add_" type="Add" version="opset1">
			<data auto_broadcast="numpy"/>
			<input>
				<port id="0">
					<dim>1</dim>
					<dim>64</dim>
					<dim>40</dim>
					<dim>64</dim>
				</port>
				<port id="1">
					<dim>1</dim>
					<dim>64</dim>
					<dim>1</dim>
					<dim>1</dim>
				</port>
			</input>
			<output>
				<port id="2" names="detector/yolo-v4-tiny/Conv_7/BatchNorm/FusedBatchNormV3:0" precision="FP16">
					<dim>1</dim>
					<dim>64</dim>
					<dim>40</dim>
					<dim>64</dim>
				</port>
			</output>
		</layer>
		<layer id="58" name="detector/yolo-v4-tiny/Conv_7/LeakyRelu/Cast_17961_const" type="Const" version="opset1">
			<data element_type="f32" offset="1792" shape="1" size="4"/>
			<output>
				<port id="0" precision="FP32">
					<dim>1</dim>
				</port>
			</output>
		</layer>
		<layer id="59" name="detector/yolo-v4-tiny/Conv_7/LeakyRelu" type="PReLU" version="opset1">
			<input>
				<port id="0">
					<dim>1</dim>
					<dim>64</dim>
					<dim>40</dim>
					<dim>64</dim>
				</port>
				<port id="1">
					<dim>1</dim>
				</port>
			</input>
			<output>
				<port id="2" names="detector/yolo-v4-tiny/Conv_7/LeakyRelu:0" precision="FP16">
					<dim>1</dim>
					<dim>64</dim>
					<dim>40</dim>
					<dim>64</dim>
				</port>
			</output>
		</layer>
		<layer id="60" name="detector/yolo-v4-tiny/Conv_8/Conv2D/Transpose5593_const" type="Const" version="opset1">
			<data element_type="f16" offset="527108" shape="64,64,3,3" size="73728"/>
			<output>
				<port id="0" names="detector/yolo-v4-tiny/Conv_8/weights/read:0" precision="FP16">
					<dim>64</dim>
					<dim>64</dim>
					<dim>3</dim>
					<dim>3</dim>
				</port>
			</output>
		</layer>
		<layer id="61" name="detector/yolo-v4-tiny/Conv_8/Conv2D" type="Convolution" version="opset1">
			<data auto_pad="same_upper" dilations="1,1" pads_begin="0,0" pads_end="0,0" strides="1,1"/>
			<input>
				<port id="0">
					<dim>1</dim>
					<dim>64</dim>
					<dim>40</dim>
					<dim>64</dim>
				</port>
				<port id="1">
					<dim>64</dim>
					<dim>64</dim>
					<dim>3</dim>
					<dim>3</dim>
				</port>
			</input>
			<output>
				<port id="2" precision="FP16">
					<dim>1</dim>
					<dim>64</dim>
					<dim>40</dim>
					<dim>64</dim>
				</port>
			</output>
		</layer>
		<layer id="62" name="data_add_434543504488/EltwiseUnsqueeze4592_const" type="Const" version="opset1">
			<data element_type="f16" offset="600836" shape="1,64,1,1" size="128"/>
			<output>
				<port id="0" precision="FP16">
					<dim>1</dim>
					<dim>64</dim>
					<dim>1</dim>
					<dim>1</dim>
				</port>
			</output>
		</layer>
		<layer id="63" name="detector/yolo-v4-tiny/Conv_8/BatchNorm/FusedBatchNormV3/variance/Fused_Add_" type="Add" version="opset1">
			<data auto_broadcast="numpy"/>
			<input>
				<port id="0">
					<dim>1</dim>
					<dim>64</dim>
					<dim>40</dim>
					<dim>64</dim>
				</port>
				<port id="1">
					<dim>1</dim>
					<dim>64</dim>
					<dim>1</dim>
					<dim>1</dim>
				</port>
			</input>
			<output>
				<port id="2" names="detector/yolo-v4-tiny/Conv_8/BatchNorm/FusedBatchNormV3:0" precision="FP16">
					<dim>1</dim>
					<dim>64</dim>
					<dim>40</dim>
					<dim>64</dim>
				</port>
			</output>
		</layer>
		<layer id="64" name="detector/yolo-v4-tiny/Conv_8/LeakyRelu/Cast_17955_const" type="Const" version="opset1">
			<data element_type="f32" offset="1792" shape="1" size="4"/>
			<output>
				<port id="0" precision="FP32">
					<dim>1</dim>
				</port>
			</output>
		</layer>
		<layer id="65" name="detector/yolo-v4-tiny/Conv_8/LeakyRelu" type="PReLU" version="opset1">
			<input>
				<port id="0">
					<dim>1</dim>
					<dim>64</dim>
					<dim>40</dim>
					<dim>64</dim>
				</port>
				<port id="1">
					<dim>1</dim>
				</port>
			</input>
			<output>
				<port id="2" names="detector/yolo-v4-tiny/Conv_8/LeakyRelu:0" precision="FP16">
					<dim>1</dim>
					<dim>64</dim>
					<dim>40</dim>
					<dim>64</dim>
				</port>
			</output>
		</layer>
		<layer id="66" name="detector/yolo-v4-tiny/concat_2" type="Concat" version="opset1">
			<data axis="1"/>
			<input>
				<port id="0">
					<dim>1</dim>
					<dim>64</dim>
					<dim>40</dim>
					<dim>64</dim>
				</port>
				<port id="1">
					<dim>1</dim>
					<dim>64</dim>
					<dim>40</dim>
					<dim>64</dim>
				</port>
			</input>
			<output>
				<port id="2" names="detector/yolo-v4-tiny/concat_2:0" precision="FP16">
					<dim>1</dim>
					<dim>128</dim>
					<dim>40</dim>
					<dim>64</dim>
				</port>
			</output>
		</layer>
		<layer id="67" name="detector/yolo-v4-tiny/Conv_9/Conv2D/Transpose5597_const" type="Const" version="opset1">
			<data element_type="f16" offset="600964" shape="128,128,1,1" size="32768"/>
			<output>
				<port id="0" names="detector/yolo-v4-tiny/Conv_9/weights/read:0" precision="FP16">
					<dim>128</dim>
					<dim>128</dim>
					<dim>1</dim>
					<dim>1</dim>
				</port>
			</output>
		</layer>
		<layer id="68" name="detector/yolo-v4-tiny/Conv_9/Conv2D" type="Convolution" version="opset1">
			<data auto_pad="same_upper" dilations="1,1" pads_begin="0,0" pads_end="0,0" strides="1,1"/>
			<input>
				<port id="0">
					<dim>1</dim>
					<dim>128</dim>
					<dim>40</dim>
					<dim>64</dim>
				</port>
				<port id="1">
					<dim>128</dim>
					<dim>128</dim>
					<dim>1</dim>
					<dim>1</dim>
				</port>
			</input>
			<output>
				<port id="2" precision="FP16">
					<dim>1</dim>
					<dim>128</dim>
					<dim>40</dim>
					<dim>64</dim>
				</port>
			</output>
		</layer>
		<layer id="69" name="data_add_435343584490/EltwiseUnsqueeze4600_const" type="Const" version="opset1">
			<data element_type="f16" offset="633732" shape="1,128,1,1" size="256"/>
			<output>
				<port id="0" precision="FP16">
					<dim>1</dim>
					<dim>128</dim>
					<dim>1</dim>
					<dim>1</dim>
				</port>
			</output>
		</layer>
		<layer id="70" name="detector/yolo-v4-tiny/Conv_9/BatchNorm/FusedBatchNormV3/variance/Fused_Add_" type="Add" version="opset1">
			<data auto_broadcast="numpy"/>
			<input>
				<port id="0">
					<dim>1</dim>
					<dim>128</dim>
					<dim>40</dim>
					<dim>64</dim>
				</port>
				<port id="1">
					<dim>1</dim>
					<dim>128</dim>
					<dim>1</dim>
					<dim>1</dim>
				</port>
			</input>
			<output>
				<port id="2" names="detector/yolo-v4-tiny/Conv_9/BatchNorm/FusedBatchNormV3:0" precision="FP16">
					<dim>1</dim>
					<dim>128</dim>
					<dim>40</dim>
					<dim>64</dim>
				</port>
			</output>
		</layer>
		<layer id="71" name="detector/yolo-v4-tiny/Conv_9/LeakyRelu/Cast_17903_const" type="Const" version="opset1">
			<data element_type="f32" offset="1792" shape="1" size="4"/>
			<output>
				<port id="0" precision="FP32">
					<dim>1</dim>
				</port>
			</output>
		</layer>
		<layer id="72" name="detector/yolo-v4-tiny/Conv_9/LeakyRelu" type="PReLU" version="opset1">
			<input>
				<port id="0">
					<dim>1</dim>
					<dim>128</dim>
					<dim>40</dim>
					<dim>64</dim>
				</port>
				<port id="1">
					<dim>1</dim>
				</port>
			</input>
			<output>
				<port id="2" names="detector/yolo-v4-tiny/Conv_9/LeakyRelu:0" precision="FP16">
					<dim>1</dim>
					<dim>128</dim>
					<dim>40</dim>
					<dim>64</dim>
				</port>
			</output>
		</layer>
		<layer id="73" name="detector/yolo-v4-tiny/concat_3" type="Concat" version="opset1">
			<data axis="1"/>
			<input>
				<port id="0">
					<dim>1</dim>
					<dim>128</dim>
					<dim>40</dim>
					<dim>64</dim>
				</port>
				<port id="1">
					<dim>1</dim>
					<dim>128</dim>
					<dim>40</dim>
					<dim>64</dim>
				</port>
			</input>
			<output>
				<port id="2" names="detector/yolo-v4-tiny/concat_3:0" precision="FP16">
					<dim>1</dim>
					<dim>256</dim>
					<dim>40</dim>
					<dim>64</dim>
				</port>
			</output>
		</layer>
		<layer id="74" name="detector/yolo-v4-tiny/pool2_1/MaxPool" type="MaxPool" version="opset1">
			<data auto_pad="valid" kernel="2,2" pads_begin="0,0" pads_end="0,0" strides="2,2"/>
			<input>
				<port id="0">
					<dim>1</dim>
					<dim>256</dim>
					<dim>40</dim>
					<dim>64</dim>
				</port>
			</input>
			<output>
				<port id="1" names="detector/yolo-v4-tiny/pool2_1/MaxPool:0" precision="FP16">
					<dim>1</dim>
					<dim>256</dim>
					<dim>20</dim>
					<dim>32</dim>
				</port>
			</output>
		</layer>
		<layer id="75" name="detector/yolo-v4-tiny/Conv_10/Conv2D/Transpose5601_const" type="Const" version="opset1">
			<data element_type="f16" offset="633988" shape="256,256,3,3" size="1179648"/>
			<output>
				<port id="0" names="detector/yolo-v4-tiny/Conv_10/weights/read:0" precision="FP16">
					<dim>256</dim>
					<dim>256</dim>
					<dim>3</dim>
					<dim>3</dim>
				</port>
			</output>
		</layer>
		<layer id="76" name="detector/yolo-v4-tiny/Conv_10/Conv2D" type="Convolution" version="opset1">
			<data auto_pad="same_upper" dilations="1,1" pads_begin="0,0" pads_end="0,0" strides="1,1"/>
			<input>
				<port id="0">
					<dim>1</dim>
					<dim>256</dim>
					<dim>20</dim>
					<dim>32</dim>
				</port>
				<port id="1">
					<dim>256</dim>
					<dim>256</dim>
					<dim>3</dim>
					<dim>3</dim>
				</port>
			</input>
			<output>
				<port id="2" precision="FP16">
					<dim>1</dim>
					<dim>256</dim>
					<dim>20</dim>
					<dim>32</dim>
				</port>
			</output>
		</layer>
		<layer id="77" name="data_add_436143664492/EltwiseUnsqueeze4608_const" type="Const" version="opset1">
			<data element_type="f16" offset="1813636" shape="1,256,1,1" size="512"/>
			<output>
				<port id="0" precision="FP16">
					<dim>1</dim>
					<dim>256</dim>
					<dim>1</dim>
					<dim>1</dim>
				</port>
			</output>
		</layer>
		<layer id="78" name="detector/yolo-v4-tiny/Conv_10/BatchNorm/FusedBatchNormV3/variance/Fused_Add_" type="Add" version="opset1">
			<data auto_broadcast="numpy"/>
			<input>
				<port id="0">
					<dim>1</dim>
					<dim>256</dim>
					<dim>20</dim>
					<dim>32</dim>
				</port>
				<port id="1">
					<dim>1</dim>
					<dim>256</dim>
					<dim>1</dim>
					<dim>1</dim>
				</port>
			</input>
			<output>
				<port id="2" names="detector/yolo-v4-tiny/Conv_10/BatchNorm/FusedBatchNormV3:0" precision="FP16">
					<dim>1</dim>
					<dim>256</dim>
					<dim>20</dim>
					<dim>32</dim>
				</port>
			</output>
		</layer>
		<layer id="79" name="detector/yolo-v4-tiny/Conv_10/LeakyRelu/Cast_17915_const" type="Const" version="opset1">
			<data element_type="f32" offset="1792" shape="1" size="4"/>
			<output>
				<port id="0" precision="FP32">
					<dim>1</dim>
				</port>
			</output>
		</layer>
		<layer id="80" name="detector/yolo-v4-tiny/Conv_10/LeakyRelu" type="PReLU" version="opset1">
			<input>
				<port id="0">
					<dim>1</dim>
					<dim>256</dim>
					<dim>20</dim>
					<dim>32</dim>
				</port>
				<port id="1">
					<dim>1</dim>
				</port>
			</input>
			<output>
				<port id="2" names="detector/yolo-v4-tiny/Conv_10/LeakyRelu:0" precision="FP16">
					<dim>1</dim>
					<dim>256</dim>
					<dim>20</dim>
					<dim>32</dim>
				</port>
			</output>
		</layer>
		<layer id="81" name="detector/yolo-v4-tiny/strided_slice_2/Cast_17919_const" type="Const" version="opset1">
			<data element_type="i64" offset="1814148" shape="4" size="32"/>
			<output>
				<port id="0" precision="I64">
					<dim>4</dim>
				</port>
			</output>
		</layer>
		<layer id="82" name="detector/yolo-v4-tiny/strided_slice_2/Cast_27921_const" type="Const" version="opset1">
			<data element_type="i64" offset="112676" shape="4" size="32"/>
			<output>
				<port id="0" precision="I64">
					<dim>4</dim>
				</port>
			</output>
		</layer>
		<layer id="83" name="detector/yolo-v4-tiny/strided_slice_2/Cast_37923_const" type="Const" version="opset1">
			<data element_type="i64" offset="112708" shape="4" size="32"/>
			<output>
				<port id="0" precision="I64">
					<dim>4</dim>
				</port>
			</output>
		</layer>
		<layer id="84" name="detector/yolo-v4-tiny/strided_slice_2" type="StridedSlice" version="opset1">
			<data begin_mask="1,0,1,1" ellipsis_mask="0,0,0,0" end_mask="1,1,1,1" new_axis_mask="0,0,0,0" shrink_axis_mask="0,0,0,0"/>
			<input>
				<port id="0">
					<dim>1</dim>
					<dim>256</dim>
					<dim>20</dim>
					<dim>32</dim>
				</port>
				<port id="1">
					<dim>4</dim>
				</port>
				<port id="2">
					<dim>4</dim>
				</port>
				<port id="3">
					<dim>4</dim>
				</port>
			</input>
			<output>
				<port id="4" names="detector/yolo-v4-tiny/strided_slice_2:0" precision="FP16">
					<dim>1</dim>
					<dim>128</dim>
					<dim>20</dim>
					<dim>32</dim>
				</port>
			</output>
		</layer>
		<layer id="85" name="detector/yolo-v4-tiny/Conv_11/Conv2D/Transpose5623_const" type="Const" version="opset1">
			<data element_type="f16" offset="1814180" shape="128,128,3,3" size="294912"/>
			<output>
				<port id="0" names="detector/yolo-v4-tiny/Conv_11/weights/read:0" precision="FP16">
					<dim>128</dim>
					<dim>128</dim>
					<dim>3</dim>
					<dim>3</dim>
				</port>
			</output>
		</layer>
		<layer id="86" name="detector/yolo-v4-tiny/Conv_11/Conv2D" type="Convolution" version="opset1">
			<data auto_pad="same_upper" dilations="1,1" pads_begin="0,0" pads_end="0,0" strides="1,1"/>
			<input>
				<port id="0">
					<dim>1</dim>
					<dim>128</dim>
					<dim>20</dim>
					<dim>32</dim>
				</port>
				<port id="1">
					<dim>128</dim>
					<dim>128</dim>
					<dim>3</dim>
					<dim>3</dim>
				</port>
			</input>
			<output>
				<port id="2" precision="FP16">
					<dim>1</dim>
					<dim>128</dim>
					<dim>20</dim>
					<dim>32</dim>
				</port>
			</output>
		</layer>
		<layer id="87" name="data_add_436943744494/EltwiseUnsqueeze4616_const" type="Const" version="opset1">
			<data element_type="f16" offset="2109092" shape="1,128,1,1" size="256"/>
			<output>
				<port id="0" precision="FP16">
					<dim>1</dim>
					<dim>128</dim>
					<dim>1</dim>
					<dim>1</dim>
				</port>
			</output>
		</layer>
		<layer id="88" name="detector/yolo-v4-tiny/Conv_11/BatchNorm/FusedBatchNormV3/variance/Fused_Add_" type="Add" version="opset1">
			<data auto_broadcast="numpy"/>
			<input>
				<port id="0">
					<dim>1</dim>
					<dim>128</dim>
					<dim>20</dim>
					<dim>32</dim>
				</port>
				<port id="1">
					<dim>1</dim>
					<dim>128</dim>
					<dim>1</dim>
					<dim>1</dim>
				</port>
			</input>
			<output>
				<port id="2" names="detector/yolo-v4-tiny/Conv_11/BatchNorm/FusedBatchNormV3:0" precision="FP16">
					<dim>1</dim>
					<dim>128</dim>
					<dim>20</dim>
					<dim>32</dim>
				</port>
			</output>
		</layer>
		<layer id="89" name="detector/yolo-v4-tiny/Conv_11/LeakyRelu/Cast_17905_const" type="Const" version="opset1">
			<data element_type="f32" offset="1792" shape="1" size="4"/>
			<output>
				<port id="0" precision="FP32">
					<dim>1</dim>
				</port>
			</output>
		</layer>
		<layer id="90" name="detector/yolo-v4-tiny/Conv_11/LeakyRelu" type="PReLU" version="opset1">
			<input>
				<port id="0">
					<dim>1</dim>
					<dim>128</dim>
					<dim>20</dim>
					<dim>32</dim>
				</port>
				<port id="1">
					<dim>1</dim>
				</port>
			</input>
			<output>
				<port id="2" names="detector/yolo-v4-tiny/Conv_11/LeakyRelu:0" precision="FP16">
					<dim>1</dim>
					<dim>128</dim>
					<dim>20</dim>
					<dim>32</dim>
				</port>
			</output>
		</layer>
		<layer id="91" name="detector/yolo-v4-tiny/Conv_12/Conv2D/Transpose5627_const" type="Const" version="opset1">
			<data element_type="f16" offset="2109348" shape="128,128,3,3" size="294912"/>
			<output>
				<port id="0" names="detector/yolo-v4-tiny/Conv_12/weights/read:0" precision="FP16">
					<dim>128</dim>
					<dim>128</dim>
					<dim>3</dim>
					<dim>3</dim>
				</port>
			</output>
		</layer>
		<layer id="92" name="detector/yolo-v4-tiny/Conv_12/Conv2D" type="Convolution" version="opset1">
			<data auto_pad="same_upper" dilations="1,1" pads_begin="0,0" pads_end="0,0" strides="1,1"/>
			<input>
				<port id="0">
					<dim>1</dim>
					<dim>128</dim>
					<dim>20</dim>
					<dim>32</dim>
				</port>
				<port id="1">
					<dim>128</dim>
					<dim>128</dim>
					<dim>3</dim>
					<dim>3</dim>
				</port>
			</input>
			<output>
				<port id="2" precision="FP16">
					<dim>1</dim>
					<dim>128</dim>
					<dim>20</dim>
					<dim>32</dim>
				</port>
			</output>
		</layer>
		<layer id="93" name="data_add_437743824496/EltwiseUnsqueeze4624_const" type="Const" version="opset1">
			<data element_type="f16" offset="2404260" shape="1,128,1,1" size="256"/>
			<output>
				<port id="0" precision="FP16">
					<dim>1</dim>
					<dim>128</dim>
					<dim>1</dim>
					<dim>1</dim>
				</port>
			</output>
		</layer>
		<layer id="94" name="detector/yolo-v4-tiny/Conv_12/BatchNorm/FusedBatchNormV3/variance/Fused_Add_" type="Add" version="opset1">
			<data auto_broadcast="numpy"/>
			<input>
				<port id="0">
					<dim>1</dim>
					<dim>128</dim>
					<dim>20</dim>
					<dim>32</dim>
				</port>
				<port id="1">
					<dim>1</dim>
					<dim>128</dim>
					<dim>1</dim>
					<dim>1</dim>
				</port>
			</input>
			<output>
				<port id="2" names="detector/yolo-v4-tiny/Conv_12/BatchNorm/FusedBatchNormV3:0" precision="FP16">
					<dim>1</dim>
					<dim>128</dim>
					<dim>20</dim>
					<dim>32</dim>
				</port>
			</output>
		</layer>
		<layer id="95" name="detector/yolo-v4-tiny/Conv_12/LeakyRelu/Cast_17957_const" type="Const" version="opset1">
			<data element_type="f32" offset="1792" shape="1" size="4"/>
			<output>
				<port id="0" precision="FP32">
					<dim>1</dim>
				</port>
			</output>
		</layer>
		<layer id="96" name="detector/yolo-v4-tiny/Conv_12/LeakyRelu" type="PReLU" version="opset1">
			<input>
				<port id="0">
					<dim>1</dim>
					<dim>128</dim>
					<dim>20</dim>
					<dim>32</dim>
				</port>
				<port id="1">
					<dim>1</dim>
				</port>
			</input>
			<output>
				<port id="2" names="detector/yolo-v4-tiny/Conv_12/LeakyRelu:0" precision="FP16">
					<dim>1</dim>
					<dim>128</dim>
					<dim>20</dim>
					<dim>32</dim>
				</port>
			</output>
		</layer>
		<layer id="97" name="detector/yolo-v4-tiny/concat_4" type="Concat" version="opset1">
			<data axis="1"/>
			<input>
				<port id="0">
					<dim>1</dim>
					<dim>128</dim>
					<dim>20</dim>
					<dim>32</dim>
				</port>
				<port id="1">
					<dim>1</dim>
					<dim>128</dim>
					<dim>20</dim>
					<dim>32</dim>
				</port>
			</input>
			<output>
				<port id="2" names="detector/yolo-v4-tiny/concat_4:0" precision="FP16">
					<dim>1</dim>
					<dim>256</dim>
					<dim>20</dim>
					<dim>32</dim>
				</port>
			</output>
		</layer>
		<layer id="98" name="detector/yolo-v4-tiny/Conv_13/Conv2D/Transpose5631_const" type="Const" version="opset1">
			<data element_type="f16" offset="2404516" shape="256,256,1,1" size="131072"/>
			<output>
				<port id="0" names="detector/yolo-v4-tiny/Conv_13/weights/read:0" precision="FP16">
					<dim>256</dim>
					<dim>256</dim>
					<dim>1</dim>
					<dim>1</dim>
				</port>
			</output>
		</layer>
		<layer id="99" name="detector/yolo-v4-tiny/Conv_13/Conv2D" type="Convolution" version="opset1">
			<data auto_pad="same_upper" dilations="1,1" pads_begin="0,0" pads_end="0,0" strides="1,1"/>
			<input>
				<port id="0">
					<dim>1</dim>
					<dim>256</dim>
					<dim>20</dim>
					<dim>32</dim>
				</port>
				<port id="1">
					<dim>256</dim>
					<dim>256</dim>
					<dim>1</dim>
					<dim>1</dim>
				</port>
			</input>
			<output>
				<port id="2" precision="FP16">
					<dim>1</dim>
					<dim>256</dim>
					<dim>20</dim>
					<dim>32</dim>
				</port>
			</output>
		</layer>
		<layer id="100" name="data_add_438543904498/EltwiseUnsqueeze4632_const" type="Const" version="opset1">
			<data element_type="f16" offset="2535588" shape="1,256,1,1" size="512"/>
			<output>
				<port id="0" precision="FP16">
					<dim>1</dim>
					<dim>256</dim>
					<dim>1</dim>
					<dim>1</dim>
				</port>
			</output>
		</layer>
		<layer id="101" name="detector/yolo-v4-tiny/Conv_13/BatchNorm/FusedBatchNormV3/variance/Fused_Add_" type="Add" version="opset1">
			<data auto_broadcast="numpy"/>
			<input>
				<port id="0">
					<dim>1</dim>
					<dim>256</dim>
					<dim>20</dim>
					<dim>32</dim>
				</port>
				<port id="1">
					<dim>1</dim>
					<dim>256</dim>
					<dim>1</dim>
					<dim>1</dim>
				</port>
			</input>
			<output>
				<port id="2" names="detector/yolo-v4-tiny/Conv_13/BatchNorm/FusedBatchNormV3:0" precision="FP16">
					<dim>1</dim>
					<dim>256</dim>
					<dim>20</dim>
					<dim>32</dim>
				</port>
			</output>
		</layer>
		<layer id="102" name="detector/yolo-v4-tiny/Conv_13/LeakyRelu/Cast_17897_const" type="Const" version="opset1">
			<data element_type="f32" offset="1792" shape="1" size="4"/>
			<output>
				<port id="0" precision="FP32">
					<dim>1</dim>
				</port>
			</output>
		</layer>
		<layer id="103" name="detector/yolo-v4-tiny/Conv_13/LeakyRelu" type="PReLU" version="opset1">
			<input>
				<port id="0">
					<dim>1</dim>
					<dim>256</dim>
					<dim>20</dim>
					<dim>32</dim>
				</port>
				<port id="1">
					<dim>1</dim>
				</port>
			</input>
			<output>
				<port id="2" names="detector/yolo-v4-tiny/Conv_13/LeakyRelu:0" precision="FP16">
					<dim>1</dim>
					<dim>256</dim>
					<dim>20</dim>
					<dim>32</dim>
				</port>
			</output>
		</layer>
		<layer id="104" name="detector/yolo-v4-tiny/concat_5" type="Concat" version="opset1">
			<data axis="1"/>
			<input>
				<port id="0">
					<dim>1</dim>
					<dim>256</dim>
					<dim>20</dim>
					<dim>32</dim>
				</port>
				<port id="1">
					<dim>1</dim>
					<dim>256</dim>
					<dim>20</dim>
					<dim>32</dim>
				</port>
			</input>
			<output>
				<port id="2" names="detector/yolo-v4-tiny/concat_5:0" precision="FP16">
					<dim>1</dim>
					<dim>512</dim>
					<dim>20</dim>
					<dim>32</dim>
				</port>
			</output>
		</layer>
		<layer id="105" name="detector/yolo-v4-tiny/pool2_2/MaxPool" type="MaxPool" version="opset1">
			<data auto_pad="valid" kernel="2,2" pads_begin="0,0" pads_end="0,0" strides="2,2"/>
			<input>
				<port id="0">
					<dim>1</dim>
					<dim>512</dim>
					<dim>20</dim>
					<dim>32</dim>
				</port>
			</input>
			<output>
				<port id="1" names="detector/yolo-v4-tiny/pool2_2/MaxPool:0" precision="FP16">
					<dim>1</dim>
					<dim>512</dim>
					<dim>10</dim>
					<dim>16</dim>
				</port>
			</output>
		</layer>
		<layer id="106" name="detector/yolo-v4-tiny/Conv_14/Conv2D/Transpose5635_const" type="Const" version="opset1">
			<data element_type="f16" offset="2536100" shape="512,512,3,3" size="4718592"/>
			<output>
				<port id="0" names="detector/yolo-v4-tiny/Conv_14/weights/read:0" precision="FP16">
					<dim>512</dim>
					<dim>512</dim>
					<dim>3</dim>
					<dim>3</dim>
				</port>
			</output>
		</layer>
		<layer id="107" name="detector/yolo-v4-tiny/Conv_14/Conv2D" type="Convolution" version="opset1">
			<data auto_pad="same_upper" dilations="1,1" pads_begin="0,0" pads_end="0,0" strides="1,1"/>
			<input>
				<port id="0">
					<dim>1</dim>
					<dim>512</dim>
					<dim>10</dim>
					<dim>16</dim>
				</port>
				<port id="1">
					<dim>512</dim>
					<dim>512</dim>
					<dim>3</dim>
					<dim>3</dim>
				</port>
			</input>
			<output>
				<port id="2" precision="FP16">
					<dim>1</dim>
					<dim>512</dim>
					<dim>10</dim>
					<dim>16</dim>
				</port>
			</output>
		</layer>
		<layer id="108" name="data_add_439343984500/EltwiseUnsqueeze4640_const" type="Const" version="opset1">
			<data element_type="f16" offset="7254692" shape="1,512,1,1" size="1024"/>
			<output>
				<port id="0" precision="FP16">
					<dim>1</dim>
					<dim>512</dim>
					<dim>1</dim>
					<dim>1</dim>
				</port>
			</output>
		</layer>
		<layer id="109" name="detector/yolo-v4-tiny/Conv_14/BatchNorm/FusedBatchNormV3/variance/Fused_Add_" type="Add" version="opset1">
			<data auto_broadcast="numpy"/>
			<input>
				<port id="0">
					<dim>1</dim>
					<dim>512</dim>
					<dim>10</dim>
					<dim>16</dim>
				</port>
				<port id="1">
					<dim>1</dim>
					<dim>512</dim>
					<dim>1</dim>
					<dim>1</dim>
				</port>
			</input>
			<output>
				<port id="2" names="detector/yolo-v4-tiny/Conv_14/BatchNorm/FusedBatchNormV3:0" precision="FP16">
					<dim>1</dim>
					<dim>512</dim>
					<dim>10</dim>
					<dim>16</dim>
				</port>
			</output>
		</layer>
		<layer id="110" name="detector/yolo-v4-tiny/Conv_14/LeakyRelu/Cast_17899_const" type="Const" version="opset1">
			<data element_type="f32" offset="1792" shape="1" size="4"/>
			<output>
				<port id="0" precision="FP32">
					<dim>1</dim>
				</port>
			</output>
		</layer>
		<layer id="111" name="detector/yolo-v4-tiny/Conv_14/LeakyRelu" type="PReLU" version="opset1">
			<input>
				<port id="0">
					<dim>1</dim>
					<dim>512</dim>
					<dim>10</dim>
					<dim>16</dim>
				</port>
				<port id="1">
					<dim>1</dim>
				</port>
			</input>
			<output>
				<port id="2" names="detector/yolo-v4-tiny/Conv_14/LeakyRelu:0" precision="FP16">
					<dim>1</dim>
					<dim>512</dim>
					<dim>10</dim>
					<dim>16</dim>
				</port>
			</output>
		</layer>
		<layer id="112" name="detector/yolo-v4-tiny/Conv_15/Conv2D/Transpose5639_const" type="Const" version="opset1">
			<data element_type="f16" offset="7255716" shape="256,512,1,1" size="262144"/>
			<output>
				<port id="0" names="detector/yolo-v4-tiny/Conv_15/weights/read:0" precision="FP16">
					<dim>256</dim>
					<dim>512</dim>
					<dim>1</dim>
					<dim>1</dim>
				</port>
			</output>
		</layer>
		<layer id="113" name="detector/yolo-v4-tiny/Conv_15/Conv2D" type="Convolution" version="opset1">
			<data auto_pad="same_upper" dilations="1,1" pads_begin="0,0" pads_end="0,0" strides="1,1"/>
			<input>
				<port id="0">
					<dim>1</dim>
					<dim>512</dim>
					<dim>10</dim>
					<dim>16</dim>
				</port>
				<port id="1">
					<dim>256</dim>
					<dim>512</dim>
					<dim>1</dim>
					<dim>1</dim>
				</port>
			</input>
			<output>
				<port id="2" precision="FP16">
					<dim>1</dim>
					<dim>256</dim>
					<dim>10</dim>
					<dim>16</dim>
				</port>
			</output>
		</layer>
		<layer id="114" name="data_add_440144064502/EltwiseUnsqueeze4648_const" type="Const" version="opset1">
			<data element_type="f16" offset="7517860" shape="1,256,1,1" size="512"/>
			<output>
				<port id="0" precision="FP16">
					<dim>1</dim>
					<dim>256</dim>
					<dim>1</dim>
					<dim>1</dim>
				</port>
			</output>
		</layer>
		<layer id="115" name="detector/yolo-v4-tiny/Conv_15/BatchNorm/FusedBatchNormV3/variance/Fused_Add_" type="Add" version="opset1">
			<data auto_broadcast="numpy"/>
			<input>
				<port id="0">
					<dim>1</dim>
					<dim>256</dim>
					<dim>10</dim>
					<dim>16</dim>
				</port>
				<port id="1">
					<dim>1</dim>
					<dim>256</dim>
					<dim>1</dim>
					<dim>1</dim>
				</port>
			</input>
			<output>
				<port id="2" names="detector/yolo-v4-tiny/Conv_15/BatchNorm/FusedBatchNormV3:0" precision="FP16">
					<dim>1</dim>
					<dim>256</dim>
					<dim>10</dim>
					<dim>16</dim>
				</port>
			</output>
		</layer>
		<layer id="116" name="detector/yolo-v4-tiny/Conv_15/LeakyRelu/Cast_17959_const" type="Const" version="opset1">
			<data element_type="f32" offset="1792" shape="1" size="4"/>
			<output>
				<port id="0" precision="FP32">
					<dim>1</dim>
				</port>
			</output>
		</layer>
		<layer id="117" name="detector/yolo-v4-tiny/Conv_15/LeakyRelu" type="PReLU" version="opset1">
			<input>
				<port id="0">
					<dim>1</dim>
					<dim>256</dim>
					<dim>10</dim>
					<dim>16</dim>
				</port>
				<port id="1">
					<dim>1</dim>
				</port>
			</input>
			<output>
				<port id="2" names="detector/yolo-v4-tiny/Conv_15/LeakyRelu:0" precision="FP16">
					<dim>1</dim>
					<dim>256</dim>
					<dim>10</dim>
					<dim>16</dim>
				</port>
			</output>
		</layer>
		<layer id="118" name="detector/yolo-v4-tiny/Conv_16/Conv2D/Transpose5643_const" type="Const" version="opset1">
			<data element_type="f16" offset="7518372" shape="512,256,3,3" size="2359296"/>
			<output>
				<port id="0" names="detector/yolo-v4-tiny/Conv_16/weights/read:0" precision="FP16">
					<dim>512</dim>
					<dim>256</dim>
					<dim>3</dim>
					<dim>3</dim>
				</port>
			</output>
		</layer>
		<layer id="119" name="detector/yolo-v4-tiny/Conv_16/Conv2D" type="Convolution" version="opset1">
			<data auto_pad="same_upper" dilations="1,1" pads_begin="0,0" pads_end="0,0" strides="1,1"/>
			<input>
				<port id="0">
					<dim>1</dim>
					<dim>256</dim>
					<dim>10</dim>
					<dim>16</dim>
				</port>
				<port id="1">
					<dim>512</dim>
					<dim>256</dim>
					<dim>3</dim>
					<dim>3</dim>
				</port>
			</input>
			<output>
				<port id="2" precision="FP16">
					<dim>1</dim>
					<dim>512</dim>
					<dim>10</dim>
					<dim>16</dim>
				</port>
			</output>
		</layer>
		<layer id="120" name="data_add_442544304508/EltwiseUnsqueeze4672_const" type="Const" version="opset1">
			<data element_type="f16" offset="9877668" shape="1,512,1,1" size="1024"/>
			<output>
				<port id="0" precision="FP16">
					<dim>1</dim>
					<dim>512</dim>
					<dim>1</dim>
					<dim>1</dim>
				</port>
			</output>
		</layer>
		<layer id="121" name="detector/yolo-v4-tiny/Conv_16/BatchNorm/FusedBatchNormV3/variance/Fused_Add_" type="Add" version="opset1">
			<data auto_broadcast="numpy"/>
			<input>
				<port id="0">
					<dim>1</dim>
					<dim>512</dim>
					<dim>10</dim>
					<dim>16</dim>
				</port>
				<port id="1">
					<dim>1</dim>
					<dim>512</dim>
					<dim>1</dim>
					<dim>1</dim>
				</port>
			</input>
			<output>
				<port id="2" names="detector/yolo-v4-tiny/Conv_16/BatchNorm/FusedBatchNormV3:0" precision="FP16">
					<dim>1</dim>
					<dim>512</dim>
					<dim>10</dim>
					<dim>16</dim>
				</port>
			</output>
		</layer>
		<layer id="122" name="detector/yolo-v4-tiny/Conv_16/LeakyRelu/Cast_17949_const" type="Const" version="opset1">
			<data element_type="f32" offset="1792" shape="1" size="4"/>
			<output>
				<port id="0" precision="FP32">
					<dim>1</dim>
				</port>
			</output>
		</layer>
		<layer id="123" name="detector/yolo-v4-tiny/Conv_16/LeakyRelu" type="PReLU" version="opset1">
			<input>
				<port id="0">
					<dim>1</dim>
					<dim>512</dim>
					<dim>10</dim>
					<dim>16</dim>
				</port>
				<port id="1">
					<dim>1</dim>
				</port>
			</input>
			<output>
				<port id="2" names="detector/yolo-v4-tiny/Conv_16/LeakyRelu:0" precision="FP16">
					<dim>1</dim>
					<dim>512</dim>
					<dim>10</dim>
					<dim>16</dim>
				</port>
			</output>
		</layer>
		<layer id="124" name="detector/yolo-v4-tiny/Conv_17/Conv2D/Transpose5647_const" type="Const" version="opset1">
			<data element_type="f16" offset="9878692" shape="18,512,1,1" size="18432"/>
			<output>
				<port id="0" names="detector/yolo-v4-tiny/Conv_17/weights/read:0" precision="FP16">
					<dim>18</dim>
					<dim>512</dim>
					<dim>1</dim>
					<dim>1</dim>
				</port>
			</output>
		</layer>
		<layer id="125" name="detector/yolo-v4-tiny/Conv_17/Conv2D" type="Convolution" version="opset1">
			<data auto_pad="same_upper" dilations="1,1" pads_begin="0,0" pads_end="0,0" strides="1,1"/>
			<input>
				<port id="0">
					<dim>1</dim>
					<dim>512</dim>
					<dim>10</dim>
					<dim>16</dim>
				</port>
				<port id="1">
					<dim>18</dim>
					<dim>512</dim>
					<dim>1</dim>
					<dim>1</dim>
				</port>
			</input>
			<output>
				<port id="2" names="detector/yolo-v4-tiny/Conv_17/Conv2D:0" precision="FP16">
					<dim>1</dim>
					<dim>18</dim>
					<dim>10</dim>
					<dim>16</dim>
				</port>
			</output>
		</layer>
		<layer id="126" name="detector/yolo-v4-tiny/Conv_17/biases/read/EltwiseUnsqueeze4512_const" type="Const" version="opset1">
			<data element_type="f16" offset="9897124" shape="1,18,1,1" size="36"/>
			<output>
				<port id="0" names="detector/yolo-v4-tiny/Conv_17/biases/read:0" precision="FP16">
					<dim>1</dim>
					<dim>18</dim>
					<dim>1</dim>
					<dim>1</dim>
				</port>
			</output>
		</layer>
		<layer id="127" name="detector/yolo-v4-tiny/Conv_17/BiasAdd/Add" type="Add" version="opset1">
			<data auto_broadcast="numpy"/>
			<input>
				<port id="0">
					<dim>1</dim>
					<dim>18</dim>
					<dim>10</dim>
					<dim>16</dim>
				</port>
				<port id="1">
					<dim>1</dim>
					<dim>18</dim>
					<dim>1</dim>
					<dim>1</dim>
				</port>
			</input>
			<output>
				<port id="2" precision="FP16">
					<dim>1</dim>
					<dim>18</dim>
					<dim>10</dim>
					<dim>16</dim>
				</port>
			</output>
		</layer>
		<layer id="128" name="detector/yolo-v4-tiny/Conv_17/BiasAdd/YoloRegion" type="RegionYolo" version="opset1">
			<data anchors="10,14,23,27,37,58,81,82,135,169,344,319" axis="1" classes="1" coords="4" do_softmax="false" end_axis="3" mask="3,4,5" num="6"/>
			<input>
				<port id="0">
					<dim>1</dim>
					<dim>18</dim>
					<dim>10</dim>
					<dim>16</dim>
				</port>
			</input>
			<output>
				<port id="1" precision="FP16">
					<dim>1</dim>
					<dim>18</dim>
					<dim>10</dim>
					<dim>16</dim>
				</port>
			</output>
		</layer>
		<layer id="129" name="detector/yolo-v4-tiny/Conv_17/BiasAdd/YoloRegion/sink_port_0" type="Result" version="opset1">
			<input>
				<port id="0">
					<dim>1</dim>
					<dim>18</dim>
					<dim>10</dim>
					<dim>16</dim>
				</port>
			</input>
		</layer>
		<layer id="130" name="detector/yolo-v4-tiny/Conv_18/Conv2D/Transpose5651_const" type="Const" version="opset1">
			<data element_type="f16" offset="9897160" shape="128,256,1,1" size="65536"/>
			<output>
				<port id="0" names="detector/yolo-v4-tiny/Conv_18/weights/read:0" precision="FP16">
					<dim>128</dim>
					<dim>256</dim>
					<dim>1</dim>
					<dim>1</dim>
				</port>
			</output>
		</layer>
		<layer id="131" name="detector/yolo-v4-tiny/Conv_18/Conv2D" type="Convolution" version="opset1">
			<data auto_pad="same_upper" dilations="1,1" pads_begin="0,0" pads_end="0,0" strides="1,1"/>
			<input>
				<port id="0">
					<dim>1</dim>
					<dim>256</dim>
					<dim>10</dim>
					<dim>16</dim>
				</port>
				<port id="1">
					<dim>128</dim>
					<dim>256</dim>
					<dim>1</dim>
					<dim>1</dim>
				</port>
			</input>
			<output>
				<port id="2" precision="FP16">
					<dim>1</dim>
					<dim>128</dim>
					<dim>10</dim>
					<dim>16</dim>
				</port>
			</output>
		</layer>
		<layer id="132" name="data_add_440944144504/EltwiseUnsqueeze4656_const" type="Const" version="opset1">
			<data element_type="f16" offset="9962696" shape="1,128,1,1" size="256"/>
			<output>
				<port id="0" precision="FP16">
					<dim>1</dim>
					<dim>128</dim>
					<dim>1</dim>
					<dim>1</dim>
				</port>
			</output>
		</layer>
		<layer id="133" name="detector/yolo-v4-tiny/Conv_18/BatchNorm/FusedBatchNormV3/variance/Fused_Add_" type="Add" version="opset1">
			<data auto_broadcast="numpy"/>
			<input>
				<port id="0">
					<dim>1</dim>
					<dim>128</dim>
					<dim>10</dim>
					<dim>16</dim>
				</port>
				<port id="1">
					<dim>1</dim>
					<dim>128</dim>
					<dim>1</dim>
					<dim>1</dim>
				</port>
			</input>
			<output>
				<port id="2" names="detector/yolo-v4-tiny/Conv_18/BatchNorm/FusedBatchNormV3:0" precision="FP16">
					<dim>1</dim>
					<dim>128</dim>
					<dim>10</dim>
					<dim>16</dim>
				</port>
			</output>
		</layer>
		<layer id="134" name="detector/yolo-v4-tiny/Conv_18/LeakyRelu/Cast_17937_const" type="Const" version="opset1">
			<data element_type="f32" offset="1792" shape="1" size="4"/>
			<output>
				<port id="0" precision="FP32">
					<dim>1</dim>
				</port>
			</output>
		</layer>
		<layer id="135" name="detector/yolo-v4-tiny/Conv_18/LeakyRelu" type="PReLU" version="opset1">
			<input>
				<port id="0">
					<dim>1</dim>
					<dim>128</dim>
					<dim>10</dim>
					<dim>16</dim>
				</port>
				<port id="1">
					<dim>1</dim>
				</port>
			</input>
			<output>
				<port id="2" names="detector/yolo-v4-tiny/Conv_18/LeakyRelu:0" precision="FP16">
					<dim>1</dim>
					<dim>128</dim>
					<dim>10</dim>
					<dim>16</dim>
				</port>
			</output>
		</layer>
		<layer id="136" name="detector/yolo-v4-tiny/Conv_13/LeakyRelu/Shape" type="ShapeOf" version="opset3">
			<data output_type="i64"/>
			<input>
				<port id="0">
					<dim>1</dim>
					<dim>256</dim>
					<dim>20</dim>
					<dim>32</dim>
				</port>
			</input>
			<output>
				<port id="1" precision="I64">
					<dim>4</dim>
				</port>
			</output>
		</layer>
		<layer id="137" name="detector/yolo-v4-tiny/Conv_13/LeakyRelu/Shape/Gathered/Cast_17893_const" type="Const" version="opset1">
			<data element_type="i32" offset="9962952" shape="2" size="8"/>
			<output>
				<port id="0" precision="I32">
					<dim>2</dim>
				</port>
			</output>
		</layer>
		<layer id="138" name="detector/yolo-v4-tiny/Conv_13/LeakyRelu/Shape/Gathered/Cast_27895_const" type="Const" version="opset1">
			<data element_type="i64" offset="9962960" shape="" size="8"/>
			<output>
				<port id="0" precision="I64"/>
			</output>
		</layer>
		<layer id="139" name="detector/yolo-v4-tiny/Conv_13/LeakyRelu/Shape/Gathered" type="Gather" version="opset1">
			<input>
				<port id="0">
					<dim>4</dim>
				</port>
				<port id="1">
					<dim>2</dim>
				</port>
				<port id="2"/>
			</input>
			<output>
				<port id="3" names="detector/yolo-v4-tiny/ResizeNearestNeighbor/size:0" precision="I64">
					<dim>2</dim>
				</port>
			</output>
		</layer>
		<layer id="140" name="441/Output_0/Data__const" type="Const" version="opset1">
			<data element_type="f16" offset="9962968" shape="2" size="4"/>
			<output>
				<port id="0" precision="FP16">
					<dim>2</dim>
				</port>
			</output>
		</layer>
		<layer id="141" name="detector/yolo-v4-tiny/ResizeNearestNeighbor/shapeof" type="ShapeOf" version="opset3">
			<data output_type="i64"/>
			<input>
				<port id="0">
					<dim>1</dim>
					<dim>128</dim>
					<dim>10</dim>
					<dim>16</dim>
				</port>
			</input>
			<output>
				<port id="1" precision="I64">
					<dim>4</dim>
				</port>
			</output>
		</layer>
		<layer id="142" name="detector/yolo-v4-tiny/ResizeNearestNeighbor/shapeof/GatherNCHWtoNHWC/Cast_17951_const" type="Const" version="opset1">
			<data element_type="i32" offset="9962972" shape="4" size="16"/>
			<output>
				<port id="0" precision="I32">
					<dim>4</dim>
				</port>
			</output>
		</layer>
		<layer id="143" name="detector/yolo-v4-tiny/ResizeNearestNeighbor/shapeof/GatherNCHWtoNHWC/Cast_27953_const" type="Const" version="opset1">
			<data element_type="i64" offset="9962960" shape="" size="8"/>
			<output>
				<port id="0" precision="I64"/>
			</output>
		</layer>
		<layer id="144" name="detector/yolo-v4-tiny/ResizeNearestNeighbor/shapeof/GatherNCHWtoNHWC" type="Gather" version="opset1">
			<input>
				<port id="0">
					<dim>4</dim>
				</port>
				<port id="1">
					<dim>4</dim>
				</port>
				<port id="2"/>
			</input>
			<output>
				<port id="3" precision="I64">
					<dim>4</dim>
				</port>
			</output>
		</layer>
		<layer id="145" name="detector/yolo-v4-tiny/ResizeNearestNeighbor/StridedSlice/Cast_17929_const" type="Const" version="opset1">
			<data element_type="i64" offset="9962988" shape="1" size="8"/>
			<output>
				<port id="0" precision="I64">
					<dim>1</dim>
				</port>
			</output>
		</layer>
		<layer id="146" name="detector/yolo-v4-tiny/ResizeNearestNeighbor/StridedSlice/Cast_27931_const" type="Const" version="opset1">
			<data element_type="i64" offset="9962996" shape="1" size="8"/>
			<output>
				<port id="0" precision="I64">
					<dim>1</dim>
				</port>
			</output>
		</layer>
		<layer id="147" name="detector/yolo-v4-tiny/ResizeNearestNeighbor/StridedSlice/Cast_37933_const" type="Const" version="opset1">
			<data element_type="i64" offset="9962988" shape="1" size="8"/>
			<output>
				<port id="0" precision="I64">
					<dim>1</dim>
				</port>
			</output>
		</layer>
		<layer id="148" name="detector/yolo-v4-tiny/ResizeNearestNeighbor/StridedSlice" type="StridedSlice" version="opset1">
			<data begin_mask="0" ellipsis_mask="0" end_mask="0" new_axis_mask="0" shrink_axis_mask="0"/>
			<input>
				<port id="0">
					<dim>4</dim>
				</port>
				<port id="1">
					<dim>1</dim>
				</port>
				<port id="2">
					<dim>1</dim>
				</port>
				<port id="3">
					<dim>1</dim>
				</port>
			</input>
			<output>
				<port id="4" precision="I64">
					<dim>2</dim>
				</port>
			</output>
		</layer>
		<layer id="149" name="440" type="Convert" version="opset1">
			<data destination_type="f16"/>
			<input>
				<port id="0">
					<dim>2</dim>
				</port>
			</input>
			<output>
				<port id="1" precision="FP16">
					<dim>2</dim>
				</port>
			</output>
		</layer>
		<layer id="150" name="detector/yolo-v4-tiny/ResizeNearestNeighbor/Div" type="Divide" version="opset1">
			<data auto_broadcast="numpy"/>
			<input>
				<port id="0">
					<dim>2</dim>
				</port>
				<port id="1">
					<dim>2</dim>
				</port>
			</input>
			<output>
				<port id="2" precision="FP16">
					<dim>2</dim>
				</port>
			</output>
		</layer>
		<layer id="151" name="5665_const" type="Const" version="opset1">
			<data element_type="i64" offset="9963004" shape="2" size="16"/>
			<output>
				<port id="0" precision="I64">
					<dim>2</dim>
				</port>
			</output>
		</layer>
		<layer id="152" name="detector/yolo-v4-tiny/ResizeNearestNeighbor" type="Interpolate" version="opset4">
			<data antialias="false" coordinate_transformation_mode="asymmetric" cube_coeff="-0.75" mode="nearest" nearest_mode="floor" pads_begin="0,0,0,0" pads_end="0,0,0,0" shape_calculation_mode="sizes"/>
			<input>
				<port id="0">
					<dim>1</dim>
					<dim>128</dim>
					<dim>10</dim>
					<dim>16</dim>
				</port>
				<port id="1">
					<dim>2</dim>
				</port>
				<port id="2">
					<dim>2</dim>
				</port>
				<port id="3">
					<dim>2</dim>
				</port>
			</input>
			<output>
				<port id="4" names="detector/yolo-v4-tiny/upsampled:0,detector/yolo-v4-tiny/ResizeNearestNeighbor:0" precision="FP16">
					<dim>1</dim>
					<dim>128</dim>
					<dim>20</dim>
					<dim>32</dim>
				</port>
			</output>
		</layer>
		<layer id="153" name="detector/yolo-v4-tiny/concat_9" type="Concat" version="opset1">
			<data axis="1"/>
			<input>
				<port id="0">
					<dim>1</dim>
					<dim>128</dim>
					<dim>20</dim>
					<dim>32</dim>
				</port>
				<port id="1">
					<dim>1</dim>
					<dim>256</dim>
					<dim>20</dim>
					<dim>32</dim>
				</port>
			</input>
			<output>
				<port id="2" names="detector/yolo-v4-tiny/concat_9:0" precision="FP16">
					<dim>1</dim>
					<dim>384</dim>
					<dim>20</dim>
					<dim>32</dim>
				</port>
			</output>
		</layer>
		<layer id="154" name="detector/yolo-v4-tiny/Conv_19/Conv2D/Transpose5655_const" type="Const" version="opset1">
			<data element_type="f16" offset="9963020" shape="256,384,3,3" size="1769472"/>
			<output>
				<port id="0" names="detector/yolo-v4-tiny/Conv_19/weights/read:0" precision="FP16">
					<dim>256</dim>
					<dim>384</dim>
					<dim>3</dim>
					<dim>3</dim>
				</port>
			</output>
		</layer>
		<layer id="155" name="detector/yolo-v4-tiny/Conv_19/Conv2D" type="Convolution" version="opset1">
			<data auto_pad="same_upper" dilations="1,1" pads_begin="0,0" pads_end="0,0" strides="1,1"/>
			<input>
				<port id="0">
					<dim>1</dim>
					<dim>384</dim>
					<dim>20</dim>
					<dim>32</dim>
				</port>
				<port id="1">
					<dim>256</dim>
					<dim>384</dim>
					<dim>3</dim>
					<dim>3</dim>
				</port>
			</input>
			<output>
				<port id="2" precision="FP16">
					<dim>1</dim>
					<dim>256</dim>
					<dim>20</dim>
					<dim>32</dim>
				</port>
			</output>
		</layer>
		<layer id="156" name="data_add_441744224506/EltwiseUnsqueeze4664_const" type="Const" version="opset1">
			<data element_type="f16" offset="11732492" shape="1,256,1,1" size="512"/>
			<output>
				<port id="0" precision="FP16">
					<dim>1</dim>
					<dim>256</dim>
					<dim>1</dim>
					<dim>1</dim>
				</port>
			</output>
		</layer>
		<layer id="157" name="detector/yolo-v4-tiny/Conv_19/BatchNorm/FusedBatchNormV3/variance/Fused_Add_" type="Add" version="opset1">
			<data auto_broadcast="numpy"/>
			<input>
				<port id="0">
					<dim>1</dim>
					<dim>256</dim>
					<dim>20</dim>
					<dim>32</dim>
				</port>
				<port id="1">
					<dim>1</dim>
					<dim>256</dim>
					<dim>1</dim>
					<dim>1</dim>
				</port>
			</input>
			<output>
				<port id="2" names="detector/yolo-v4-tiny/Conv_19/BatchNorm/FusedBatchNormV3:0" precision="FP16">
					<dim>1</dim>
					<dim>256</dim>
					<dim>20</dim>
					<dim>32</dim>
				</port>
			</output>
		</layer>
		<layer id="158" name="detector/yolo-v4-tiny/Conv_19/LeakyRelu/Cast_17945_const" type="Const" version="opset1">
			<data element_type="f32" offset="1792" shape="1" size="4"/>
			<output>
				<port id="0" precision="FP32">
					<dim>1</dim>
				</port>
			</output>
		</layer>
		<layer id="159" name="detector/yolo-v4-tiny/Conv_19/LeakyRelu" type="PReLU" version="opset1">
			<input>
				<port id="0">
					<dim>1</dim>
					<dim>256</dim>
					<dim>20</dim>
					<dim>32</dim>
				</port>
				<port id="1">
					<dim>1</dim>
				</port>
			</input>
			<output>
				<port id="2" names="detector/yolo-v4-tiny/Conv_19/LeakyRelu:0" precision="FP16">
					<dim>1</dim>
					<dim>256</dim>
					<dim>20</dim>
					<dim>32</dim>
				</port>
			</output>
		</layer>
		<layer id="160" name="detector/yolo-v4-tiny/Conv_20/Conv2D/Transpose5659_const" type="Const" version="opset1">
			<data element_type="f16" offset="11733004" shape="18,256,1,1" size="9216"/>
			<output>
				<port id="0" names="detector/yolo-v4-tiny/Conv_20/weights/read:0" precision="FP16">
					<dim>18</dim>
					<dim>256</dim>
					<dim>1</dim>
					<dim>1</dim>
				</port>
			</output>
		</layer>
		<layer id="161" name="detector/yolo-v4-tiny/Conv_20/Conv2D" type="Convolution" version="opset1">
			<data auto_pad="same_upper" dilations="1,1" pads_begin="0,0" pads_end="0,0" strides="1,1"/>
			<input>
				<port id="0">
					<dim>1</dim>
					<dim>256</dim>
					<dim>20</dim>
					<dim>32</dim>
				</port>
				<port id="1">
					<dim>18</dim>
					<dim>256</dim>
					<dim>1</dim>
					<dim>1</dim>
				</port>
			</input>
			<output>
				<port id="2" names="detector/yolo-v4-tiny/Conv_20/Conv2D:0" precision="FP16">
					<dim>1</dim>
					<dim>18</dim>
					<dim>20</dim>
					<dim>32</dim>
				</port>
			</output>
		</layer>
		<layer id="162" name="detector/yolo-v4-tiny/Conv_20/biases/read/EltwiseUnsqueeze4516_const" type="Const" version="opset1">
			<data element_type="f16" offset="11742220" shape="1,18,1,1" size="36"/>
			<output>
				<port id="0" names="detector/yolo-v4-tiny/Conv_20/biases/read:0" precision="FP16">
					<dim>1</dim>
					<dim>18</dim>
					<dim>1</dim>
					<dim>1</dim>
				</port>
			</output>
		</layer>
		<layer id="163" name="detector/yolo-v4-tiny/Conv_20/BiasAdd/Add" type="Add" version="opset1">
			<data auto_broadcast="numpy"/>
			<input>
				<port id="0">
					<dim>1</dim>
					<dim>18</dim>
					<dim>20</dim>
					<dim>32</dim>
				</port>
				<port id="1">
					<dim>1</dim>
					<dim>18</dim>
					<dim>1</dim>
					<dim>1</dim>
				</port>
			</input>
			<output>
				<port id="2" precision="FP16">
					<dim>1</dim>
					<dim>18</dim>
					<dim>20</dim>
					<dim>32</dim>
				</port>
			</output>
		</layer>
		<layer id="164" name="detector/yolo-v4-tiny/Conv_20/BiasAdd/YoloRegion" type="RegionYolo" version="opset1">
			<data anchors="10,14,23,27,37,58,81,82,135,169,344,319" axis="1" classes="1" coords="4" do_softmax="false" end_axis="3" mask="0,1,2" num="6"/>
			<input>
				<port id="0">
					<dim>1</dim>
					<dim>18</dim>
					<dim>20</dim>
					<dim>32</dim>
				</port>
			</input>
			<output>
				<port id="1" precision="FP16">
					<dim>1</dim>
					<dim>18</dim>
					<dim>20</dim>
					<dim>32</dim>
				</port>
			</output>
		</layer>
		<layer id="165" name="detector/yolo-v4-tiny/Conv_20/BiasAdd/YoloRegion/sink_port_0" type="Result" version="opset1">
			<input>
				<port id="0">
					<dim>1</dim>
					<dim>18</dim>
					<dim>20</dim>
					<dim>32</dim>
				</port>
			</input>
		</layer>
	</layers>
	<edges>
		<edge from-layer="0" from-port="0" to-layer="2" to-port="0"/>
		<edge from-layer="1" from-port="0" to-layer="2" to-port="1"/>
		<edge from-layer="2" from-port="2" to-layer="4" to-port="0"/>
		<edge from-layer="3" from-port="0" to-layer="4" to-port="1"/>
		<edge from-layer="4" from-port="2" to-layer="6" to-port="0"/>
		<edge from-layer="5" from-port="0" to-layer="6" to-port="1"/>
		<edge from-layer="6" from-port="2" to-layer="8" to-port="0"/>
		<edge from-layer="7" from-port="0" to-layer="8" to-port="1"/>
		<edge from-layer="8" from-port="2" to-layer="10" to-port="0"/>
		<edge from-layer="9" from-port="0" to-layer="10" to-port="1"/>
		<edge from-layer="10" from-port="2" to-layer="12" to-port="0"/>
		<edge from-layer="11" from-port="0" to-layer="12" to-port="1"/>
		<edge from-layer="12" from-port="2" to-layer="14" to-port="0"/>
		<edge from-layer="13" from-port="0" to-layer="14" to-port="1"/>
		<edge from-layer="14" from-port="2" to-layer="16" to-port="0"/>
		<edge from-layer="15" from-port="0" to-layer="16" to-port="1"/>
		<edge from-layer="16" from-port="2" to-layer="18" to-port="0"/>
		<edge from-layer="17" from-port="0" to-layer="18" to-port="1"/>
		<edge from-layer="18" from-port="2" to-layer="22" to-port="0"/>
		<edge from-layer="19" from-port="0" to-layer="22" to-port="1"/>
		<edge from-layer="20" from-port="0" to-layer="22" to-port="2"/>
		<edge from-layer="21" from-port="0" to-layer="22" to-port="3"/>
		<edge from-layer="22" from-port="4" to-layer="24" to-port="0"/>
		<edge from-layer="23" from-port="0" to-layer="24" to-port="1"/>
		<edge from-layer="24" from-port="2" to-layer="26" to-port="0"/>
		<edge from-layer="25" from-port="0" to-layer="26" to-port="1"/>
		<edge from-layer="26" from-port="2" to-layer="28" to-port="0"/>
		<edge from-layer="27" from-port="0" to-layer="28" to-port="1"/>
		<edge from-layer="28" from-port="2" to-layer="30" to-port="0"/>
		<edge from-layer="29" from-port="0" to-layer="30" to-port="1"/>
		<edge from-layer="30" from-port="2" to-layer="32" to-port="0"/>
		<edge from-layer="31" from-port="0" to-layer="32" to-port="1"/>
		<edge from-layer="32" from-port="2" to-layer="34" to-port="0"/>
		<edge from-layer="33" from-port="0" to-layer="34" to-port="1"/>
		<edge from-layer="34" from-port="2" to-layer="35" to-port="0"/>
		<edge from-layer="28" from-port="2" to-layer="35" to-port="1"/>
		<edge from-layer="35" from-port="2" to-layer="37" to-port="0"/>
		<edge from-layer="36" from-port="0" to-layer="37" to-port="1"/>
		<edge from-layer="37" from-port="2" to-layer="39" to-port="0"/>
		<edge from-layer="38" from-port="0" to-layer="39" to-port="1"/>
		<edge from-layer="39" from-port="2" to-layer="41" to-port="0"/>
		<edge from-layer="40" from-port="0" to-layer="41" to-port="1"/>
		<edge from-layer="18" from-port="2" to-layer="42" to-port="0"/>
		<edge from-layer="41" from-port="2" to-layer="42" to-port="1"/>
		<edge from-layer="42" from-port="2" to-layer="43" to-port="0"/>
		<edge from-layer="43" from-port="1" to-layer="45" to-port="0"/>
		<edge from-layer="44" from-port="0" to-layer="45" to-port="1"/>
		<edge from-layer="45" from-port="2" to-layer="47" to-port="0"/>
		<edge from-layer="46" from-port="0" to-layer="47" to-port="1"/>
		<edge from-layer="47" from-port="2" to-layer="49" to-port="0"/>
		<edge from-layer="48" from-port="0" to-layer="49" to-port="1"/>
		<edge from-layer="49" from-port="2" to-layer="53" to-port="0"/>
		<edge from-layer="50" from-port="0" to-layer="53" to-port="1"/>
		<edge from-layer="51" from-port="0" to-layer="53" to-port="2"/>
		<edge from-layer="52" from-port="0" to-layer="53" to-port="3"/>
		<edge from-layer="53" from-port="4" to-layer="55" to-port="0"/>
		<edge from-layer="54" from-port="0" to-layer="55" to-port="1"/>
		<edge from-layer="55" from-port="2" to-layer="57" to-port="0"/>
		<edge from-layer="56" from-port="0" to-layer="57" to-port="1"/>
		<edge from-layer="57" from-port="2" to-layer="59" to-port="0"/>
		<edge from-layer="58" from-port="0" to-layer="59" to-port="1"/>
		<edge from-layer="59" from-port="2" to-layer="61" to-port="0"/>
		<edge from-layer="60" from-port="0" to-layer="61" to-port="1"/>
		<edge from-layer="61" from-port="2" to-layer="63" to-port="0"/>
		<edge from-layer="62" from-port="0" to-layer="63" to-port="1"/>
		<edge from-layer="63" from-port="2" to-layer="65" to-port="0"/>
		<edge from-layer="64" from-port="0" to-layer="65" to-port="1"/>
		<edge from-layer="65" from-port="2" to-layer="66" to-port="0"/>
		<edge from-layer="59" from-port="2" to-layer="66" to-port="1"/>
		<edge from-layer="66" from-port="2" to-layer="68" to-port="0"/>
		<edge from-layer="67" from-port="0" to-layer="68" to-port="1"/>
		<edge from-layer="68" from-port="2" to-layer="70" to-port="0"/>
		<edge from-layer="69" from-port="0" to-layer="70" to-port="1"/>
		<edge from-layer="70" from-port="2" to-layer="72" to-port="0"/>
		<edge from-layer="71" from-port="0" to-layer="72" to-port="1"/>
		<edge from-layer="49" from-port="2" to-layer="73" to-port="0"/>
		<edge from-layer="72" from-port="2" to-layer="73" to-port="1"/>
		<edge from-layer="73" from-port="2" to-layer="74" to-port="0"/>
		<edge from-layer="74" from-port="1" to-layer="76" to-port="0"/>
		<edge from-layer="75" from-port="0" to-layer="76" to-port="1"/>
		<edge from-layer="76" from-port="2" to-layer="78" to-port="0"/>
		<edge from-layer="77" from-port="0" to-layer="78" to-port="1"/>
		<edge from-layer="78" from-port="2" to-layer="80" to-port="0"/>
		<edge from-layer="79" from-port="0" to-layer="80" to-port="1"/>
		<edge from-layer="80" from-port="2" to-layer="84" to-port="0"/>
		<edge from-layer="81" from-port="0" to-layer="84" to-port="1"/>
		<edge from-layer="82" from-port="0" to-layer="84" to-port="2"/>
		<edge from-layer="83" from-port="0" to-layer="84" to-port="3"/>
		<edge from-layer="84" from-port="4" to-layer="86" to-port="0"/>
		<edge from-layer="85" from-port="0" to-layer="86" to-port="1"/>
		<edge from-layer="86" from-port="2" to-layer="88" to-port="0"/>
		<edge from-layer="87" from-port="0" to-layer="88" to-port="1"/>
		<edge from-layer="88" from-port="2" to-layer="90" to-port="0"/>
		<edge from-layer="89" from-port="0" to-layer="90" to-port="1"/>
		<edge from-layer="90" from-port="2" to-layer="92" to-port="0"/>
		<edge from-layer="91" from-port="0" to-layer="92" to-port="1"/>
		<edge from-layer="92" from-port="2" to-layer="94" to-port="0"/>
		<edge from-layer="93" from-port="0" to-layer="94" to-port="1"/>
		<edge from-layer="94" from-port="2" to-layer="96" to-port="0"/>
		<edge from-layer="95" from-port="0" to-layer="96" to-port="1"/>
		<edge from-layer="96" from-port="2" to-layer="97" to-port="0"/>
		<edge from-layer="90" from-port="2" to-layer="97" to-port="1"/>
		<edge from-layer="97" from-port="2" to-layer="99" to-port="0"/>
		<edge from-layer="98" from-port="0" to-layer="99" to-port="1"/>
		<edge from-layer="99" from-port="2" to-layer="101" to-port="0"/>
		<edge from-layer="100" from-port="0" to-layer="101" to-port="1"/>
		<edge from-layer="101" from-port="2" to-layer="103" to-port="0"/>
		<edge from-layer="102" from-port="0" to-layer="103" to-port="1"/>
		<edge from-layer="80" from-port="2" to-layer="104" to-port="0"/>
		<edge from-layer="103" from-port="2" to-layer="104" to-port="1"/>
		<edge from-layer="104" from-port="2" to-layer="105" to-port="0"/>
		<edge from-layer="105" from-port="1" to-layer="107" to-port="0"/>
		<edge from-layer="106" from-port="0" to-layer="107" to-port="1"/>
		<edge from-layer="107" from-port="2" to-layer="109" to-port="0"/>
		<edge from-layer="108" from-port="0" to-layer="109" to-port="1"/>
		<edge from-layer="109" from-port="2" to-layer="111" to-port="0"/>
		<edge from-layer="110" from-port="0" to-layer="111" to-port="1"/>
		<edge from-layer="111" from-port="2" to-layer="113" to-port="0"/>
		<edge from-layer="112" from-port="0" to-layer="113" to-port="1"/>
		<edge from-layer="113" from-port="2" to-layer="115" to-port="0"/>
		<edge from-layer="114" from-port="0" to-layer="115" to-port="1"/>
		<edge from-layer="115" from-port="2" to-layer="117" to-port="0"/>
		<edge from-layer="116" from-port="0" to-layer="117" to-port="1"/>
		<edge from-layer="117" from-port="2" to-layer="119" to-port="0"/>
		<edge from-layer="118" from-port="0" to-layer="119" to-port="1"/>
		<edge from-layer="119" from-port="2" to-layer="121" to-port="0"/>
		<edge from-layer="120" from-port="0" to-layer="121" to-port="1"/>
		<edge from-layer="121" from-port="2" to-layer="123" to-port="0"/>
		<edge from-layer="122" from-port="0" to-layer="123" to-port="1"/>
		<edge from-layer="123" from-port="2" to-layer="125" to-port="0"/>
		<edge from-layer="124" from-port="0" to-layer="125" to-port="1"/>
		<edge from-layer="125" from-port="2" to-layer="127" to-port="0"/>
		<edge from-layer="126" from-port="0" to-layer="127" to-port="1"/>
		<edge from-layer="127" from-port="2" to-layer="128" to-port="0"/>
		<edge from-layer="128" from-port="1" to-layer="129" to-port="0"/>
		<edge from-layer="117" from-port="2" to-layer="131" to-port="0"/>
		<edge from-layer="130" from-port="0" to-layer="131" to-port="1"/>
		<edge from-layer="131" from-port="2" to-layer="133" to-port="0"/>
		<edge from-layer="132" from-port="0" to-layer="133" to-port="1"/>
		<edge from-layer="133" from-port="2" to-layer="135" to-port="0"/>
		<edge from-layer="134" from-port="0" to-layer="135" to-port="1"/>
		<edge from-layer="103" from-port="2" to-layer="136" to-port="0"/>
		<edge from-layer="136" from-port="1" to-layer="139" to-port="0"/>
		<edge from-layer="137" from-port="0" to-layer="139" to-port="1"/>
		<edge from-layer="138" from-port="0" to-layer="139" to-port="2"/>
		<edge from-layer="135" from-port="2" to-layer="141" to-port="0"/>
		<edge from-layer="141" from-port="1" to-layer="144" to-port="0"/>
		<edge from-layer="142" from-port="0" to-layer="144" to-port="1"/>
		<edge from-layer="143" from-port="0" to-layer="144" to-port="2"/>
		<edge from-layer="144" from-port="3" to-layer="148" to-port="0"/>
		<edge from-layer="145" from-port="0" to-layer="148" to-port="1"/>
		<edge from-layer="146" from-port="0" to-layer="148" to-port="2"/>
		<edge from-layer="147" from-port="0" to-layer="148" to-port="3"/>
		<edge from-layer="148" from-port="4" to-layer="149" to-port="0"/>
		<edge from-layer="140" from-port="0" to-layer="150" to-port="0"/>
		<edge from-layer="149" from-port="1" to-layer="150" to-port="1"/>
		<edge from-layer="135" from-port="2" to-layer="152" to-port="0"/>
		<edge from-layer="139" from-port="3" to-layer="152" to-port="1"/>
		<edge from-layer="150" from-port="2" to-layer="152" to-port="2"/>
		<edge from-layer="151" from-port="0" to-layer="152" to-port="3"/>
		<edge from-layer="152" from-port="4" to-layer="153" to-port="0"/>
		<edge from-layer="103" from-port="2" to-layer="153" to-port="1"/>
		<edge from-layer="153" from-port="2" to-layer="155" to-port="0"/>
		<edge from-layer="154" from-port="0" to-layer="155" to-port="1"/>
		<edge from-layer="155" from-port="2" to-layer="157" to-port="0"/>
		<edge from-layer="156" from-port="0" to-layer="157" to-port="1"/>
		<edge from-layer="157" from-port="2" to-layer="159" to-port="0"/>
		<edge from-layer="158" from-port="0" to-layer="159" to-port="1"/>
		<edge from-layer="159" from-port="2" to-layer="161" to-port="0"/>
		<edge from-layer="160" from-port="0" to-layer="161" to-port="1"/>
		<edge from-layer="161" from-port="2" to-layer="163" to-port="0"/>
		<edge from-layer="162" from-port="0" to-layer="163" to-port="1"/>
		<edge from-layer="163" from-port="2" to-layer="164" to-port="0"/>
		<edge from-layer="164" from-port="1" to-layer="165" to-port="0"/>
	</edges>
	<meta_data>
		<MO_version value="2021.3.0-2787-60059f2c755-releases/2021/3"/>
		<cli_parameters>
			<batch value="1"/>
			<caffe_parser_path value="DIR"/>
			<data_type value="FP16"/>
			<disable_nhwc_to_nchw value="False"/>
			<disable_omitting_optional value="False"/>
			<disable_resnet_optimization value="False"/>
			<disable_weights_compression value="False"/>
			<enable_concat_optimization value="False"/>
			<enable_flattening_nested_params value="False"/>
			<enable_ssd_gluoncv value="False"/>
			<extensions value="DIR"/>
			<framework value="tf"/>
			<freeze_placeholder_with_value value="{}"/>
			<generate_deprecated_IR_V7 value="False"/>
			<input_model value="DIR/yolo_v4_tiny.pb"/>
			<input_model_is_text value="False"/>
			<k value="DIR/CustomLayersMapping.xml"/>
			<keep_shape_ops value="True"/>
			<legacy_mxnet_model value="False"/>
			<log_level value="ERROR"/>
			<mean_scale_values value="{}"/>
			<mean_values value="()"/>
			<model_name value="yolo_v4_tiny"/>
			<output_dir value="DIR"/>
			<placeholder_data_types value="{}"/>
			<progress value="False"/>
			<remove_memory value="False"/>
			<remove_output_softmax value="False"/>
			<reverse_input_channels value="True"/>
			<save_params_from_nd value="False"/>
			<scale_values value="()"/>
			<silent value="False"/>
			<static_shape value="False"/>
			<stream_output value="False"/>
			<tensorflow_use_custom_operations_config value="DIR/yolo.json"/>
			<transformations_config value="DIR/yolo.json"/>
			<unset unset_cli_parameters="counts, disable_fusing, disable_gfusing, finegrain_fusing, input, input_checkpoint, input_meta_graph, input_proto, input_shape, input_symbol, mean_file, mean_file_offsets, move_to_preprocess, nd_prefix_name, output, placeholder_shapes, pretrained_model_name, saved_model_dir, saved_model_tags, scale, tensorboard_logdir, tensorflow_custom_layer_libraries, tensorflow_custom_operations_config_update, tensorflow_object_detection_api_pipeline_config"/>
		</cli_parameters>
	</meta_data>
</net>
